model_microservice/models/agri_brain_pytorch.pth (torch, 83261 bytes, 8 tensors)

encoder.weight_ih_l0 f4 [256, 6]
000000 b1 6c 97 3c fb e6 5b 3e 31 71 dc 3d 15 1e 83 bc
       0.018484445 0.21474831 0.10763777 -0.016005555
000010 5c 14 08 3d 5e ff 60 bc bc 28 a6 bc aa dd 7c 3d
       0.03322254 -0.013732759 -0.020283096 0.061734833
000020 ef 15 fc bd 98 59 86 bd 59 8c dc 3d f1 5a e6 3d
       -0.12308871 -0.065600574 0.10768957 0.112478144
000030 79 93 35 bc 3c 33 ee bd c6 fc 13 3d d5 92 bc bd
       -0.0110825235 -0.11630866 0.036129735 -0.092076935
000040 e7 25 f4 3d 61 22 eb 3d 7e a5 41 bd f4 ea 56 bd
       0.11921292 0.11481167 -0.047276966 -0.052470163
000050 6a 7c 72 3d d5 ff f5 bd ee 72 81 bd 98 54 0a 3d
       0.05920068 -0.12011687 -0.06320749 0.03377208
000060 62 6c cd bd df d7 c0 bc 24 0a 0a 3e db 7d b0 bd
       -0.10030438 -0.023540435 0.13480431 -0.08617755
000070 da 72 6c bd 14 b1 e5 3d a3 ff dc 3d 55 a9 26 bb
       -0.05772672 0.112154156 0.10790946 -0.002543052
000080 1e ec 65 bc 7e 3a 42 3d 9b fb 93 3c 0f 7e a9 3c
       -0.0140333455 0.047419064 0.01806431 0.020689992
000090 29 0f 0b 3e 99 a3 cd bd ee 3d b3 3d ad 2d dc 3d
       0.13580002 -0.100409694 0.087520465 0.107508995
0000a0 ea 6b d5 bd 7b 2a c0 3d 24 78 87 3c 11 00 0e be
       -0.104209736 0.093831025 0.01653678 -0.13867213
0000b0 23 d7 8f 3d e3 8b 94 3d a4 e6 ea bc 45 aa 34 3d
       0.07023456 0.07253244 -0.028674431 0.044107694
0000c0 3c db 4f 3c ba 29 20 be 85 00 00 3e a8 64 88 bd
       0.012686547 -0.15640917 0.12500198 -0.06659824
0000d0 bc ef 52 bd 4f 15 6c 3c 52 4c d8 3d 70 03 58 3e
       -0.05149816 0.014409377 0.10561432 0.21095061
0000e0 c7 75 07 be c7 98 d1 3d ff 25 84 bd d7 65 8a 3d
       -0.13228522 0.10234218 -0.0645256 0.06757706
0000f0 04 a6 a9 be 16 5b 08 3e b3 4c 1e be da 64 c3 3c
       -0.33134472 0.13315997 -0.15458946 0.0238518
000100 75 a7 47 3d 9a c1 0b be 76 30 85 be 2b a9 8f 3d
       0.048743684 -0.13648072 -0.26013535 0.07014688
000110 59 6f 30 3c 20 fe 94 3d 39 76 ab bd b0 52 9a 3d
       0.010768735 0.07275033 -0.083721586 0.07535303
000120 bd 6a 07 3c 11 6d c7 3d f4 84 8b bd 57 74 c4 3c
       0.0082651945 0.097376 -0.06812468 0.023981256
000130 34 9f c3 3d 69 84 e6 3d 54 de be 3d 53 e2 c9 3d
       0.0955185 0.11255724 0.093197495 0.09857621
000140 f5 32 88 bd ea 49 7c 3d 8b d5 28 bd 27 6e c0 bd
       -0.06650344 0.061593927 -0.041219275 -0.0939601
000150 bd 2b 8a bd 80 4d 88 bd 28 bb c4 bc 3b d6 12 3e
       -0.06746624 -0.06655407 -0.024015024 0.14339535
000160 02 5b 80 bc 88 38 c5 3c a4 55 04 be 86 11 f8 bd
       -0.015668396 0.024074808 -0.12923294 -0.12112717
000170 ed a4 9a bd f6 ca 18 be 0c 18 09 3c 8e 51 87 3c
       -0.07550988 -0.14921173 0.00836755 0.01651838
000180 20 5b 53 3d f9 c7 72 bd 27 42 32 3e 6b 85 b8 3d
       0.051600575 -0.05927274 0.17408048 0.090098225
000190 dd 7c 84 3d a0 b5 c4 bd 86 7f a9 3d 79 34 a7 bc
       0.06469128 -0.09604955 0.08276276 -0.020410763
0001a0 3b 85 a6 3d 10 a9 fd 3d 7f f8 bd 3d a5 37 f9 3d
       0.081308804 0.12385762 0.092759125 0.121688165
0001b0 72 c0 a0 bd bf 7a bb bd 5d 41 cb bc 36 e6 8d 3d
       -0.07849206 -0.09154271 -0.024811441 0.06928675
0001c0 5f d2 b7 3b f0 6f a3 3c 41 6d f9 ba f0 f2 19 bd
       0.005609795 0.019950837 -0.0019029753 -0.0375852
0001d0 fc b0 c4 3d 55 cb 82 bd 58 21 0d be 41 5f 18 be
       0.096040696 -0.06386439 -0.13782251 -0.14880086
0001e0 cc 59 e8 3d d6 8a e2 3c 65 c1 d6 bc c8 2a e4 bc
       0.113452524 0.027654093 -0.026215265 -0.027852431
0001f0 79 9d 16 3d 08 50 10 3d 06 c4 96 3c 37 a5 89 3d
       0.03677127 0.035232574 0.018404018 0.06720965
000200 19 a4 45 be bf d4 68 3d 9e 3e 0c bc 63 21 9d 3c
       -0.1930088 0.056843515 -0.008559851 0.01918096
000210 22 f7 10 bd 5a ea ba 3d 6e cc 16 be 16 96 7f 3a
       -0.035391934 0.0912673 -0.14726421 0.00097498426
000220 12 64 2f 3d 78 64 e3 bc 1b 6e 92 bd e6 f8 20 be
       0.042820044 -0.027757868 -0.07149907 -0.15719947
000230 c5 ea 62 bd ae 8d ec bc c1 37 89 bd 92 e5 32 bd
       -0.055399675 -0.028876152 -0.06700087 -0.043675967
000240 7c 5a b8 3d 78 32 ef 3d 89 60 90 3c 96 37 90 3d
       0.090016335 0.11679548 0.017624157 0.07041852
000250 3e e3 88 3d 79 83 ca 3d b8 02 16 be 53 56 05 be
       0.06683968 0.09888358 -0.14649475 -0.13021211
000260 c5 9e ae 3e 34 f8 3a be 23 b0 3a bc 4c 38 e0 bd
       0.34105507 -0.18258744 -0.011394533 -0.10948238
000270 c6 75 c7 bd e7 b5 aa 3d ce 93 66 3d f8 3f b6 bc
       -0.097392604 0.08335476 0.0562933 -0.0222473
000280 13 71 e7 bd f9 46 1b 3d cf 8c 06 be 3a d5 cc bd
       -0.11300864 0.03790948 -0.13139652 -0.10001607
000290 95 6d d2 3e 87 e3 07 3e 67 15 ee 3d c6 94 ed 3d
       0.4109923 0.13270389 0.11625176 0.11600642
0002a0 39 31 01 3d 0f 30 07 3d 82 b3 b1 be e9 81 23 bc
       0.031541083 0.033004817 -0.34707266 -0.009979703
0002b0 ca 13 11 be 01 c5 ac bd d7 1a 87 be 4d 85 41 bd
       -0.14167705 -0.08436013 -0.26387665 -0.047246266
0002c0 7b e1 5a 3e 93 14 3f be 49 06 10 be 89 9d f1 bd
       0.21375076 -0.18660192 -0.14064898 -0.117976256
0002d0 4b 69 8f bd 90 c1 91 3d d1 8d 84 3c b7 a1 aa 3d
       -0.07002505 0.07116997 0.016180905 0.08331626
0002e0 22 f9 93 bc d8 56 71 bc 81 fe ac 3d e7 e7 36 be
       -0.018063132 -0.014730178 0.0844698 -0.17861901
0002f0 58 a6 9f bd 5c 99 d1 bb a7 44 b0 3d 47 5a 21 bd
       -0.077953994 -0.0063964557 0.086068444 -0.039392736
000300 11 55 7e 3d 50 8a 1e 3c c0 5c c9 3d 21 15 96 bd
       0.062092844 0.009676531 0.09832144 -0.07328249
000310 42 8f dc 3d 74 71 db bd 18 3c 90 3e 10 42 fd 3a
       0.10769512 -0.10714999 0.28170848 0.0019322056
000320 fb 4c 7b 3d ab 4e 9c bd 46 62 66 bd d6 f3 04 3e
       0.06135271 -0.07632192 -0.056246065 0.12983641
000330 2a 5f 8f bd 94 ad d8 3c 18 97 eb bc 26 6d c8 3d
       -0.07000573 0.026449956 -0.02875857 0.097864434
000340 38 92 50 bc dc c5 a4 3d 0b 0a 8e bd 34 83 64 3e
       -0.012730174 0.08045551 -0.06935509 0.22315675
000350 e5 b9 ab 3d a8 0f 67 3d 7f 6c b4 3c 90 f1 c1 bd
       0.08385066 0.056411415 0.022024391 -0.094699025
000360 4e 78 6b bc b0 a8 e6 3d bf 5c 67 3e c2 79 be bd
       -0.014371945 0.11262643 0.22593974 -0.09300567
000370 75 bc 88 3d b5 fa c3 3d 56 26 d6 be d0 33 99 be
       0.0667657 0.09569303 -0.41826123 -0.29922342
000380 37 0b 9c 3e 11 82 9a 3d 52 78 09 3e bd 74 3d 3e
       0.30477306 0.075443394 0.13424805 0.18501563
000390 a5 32 33 3e 2b e9 28 3d ca ab aa 3d cc 46 51 bb
       0.17499788 0.04123799 0.083335474 -0.0031933067
0003a0 89 a5 a1 bd db 92 79 3d 3e cd 85 3e d6 db 3e 3e
       -0.078929015 0.060931068 0.2613315 0.18638548
0003b0 6b 07 fb bd 98 ad 8e bd e2 f8 8c bd 45 73 c8 bd
       -0.12257274 -0.06966704 -0.06883408 -0.09787611
0003c0 46 23 a0 3c 6b a0 9d 3d e0 79 c5 3d 4f fb 2f 3e
       0.01954807 0.07696613 0.096423864 0.1718571
0003d0 8a 0a e1 3d d6 07 b3 bc 1f 2f 82 3e be c9 78 bb
       0.10988338 -0.021854322 0.25426576 -0.0037962045
0003e0 5f e7 06 be 33 e5 d6 bc 7f 51 f7 3c ba 37 a2 3d
       -0.13174199 -0.026232338 0.030190228 0.07920785
0003f0 5c 51 83 3e 15 ab 0d 3e 3a 8a 2b 3d 77 31 21 3e
       0.2564801 0.13834794 0.04187987 0.15741526

encoder.weight_hh_l0 f4 [256, 64]
000000 21 23 2b b8 f5 a4 00 3e bc 2b 18 bc 2a 4e ff 3d
       -4.0802293e-05 0.12562926 -0.009287771 0.124660805
000010 89 c9 6b 3c 80 16 01 3b f5 8a 41 3e 90 38 0f 3d
       0.014391311 0.001969725 0.18900664 0.03496605
000020 93 e2 65 3e 2f ae 87 bc dc 08 c8 3d 1b 56 a7 3d
       0.22449712 -0.01656255 0.09767315 0.0817072
000030 de 30 8d 3d 08 22 d5 3d 2c a9 67 3e e5 c1 bd bd
       0.06894086 0.104068816 0.22623128 -0.09265498
000040 01 64 8e bd d0 d4 78 be 64 9b 68 be 6f 42 53 bd
       -0.06952668 -0.24299932 -0.22715527 -0.051577028
000050 f0 84 84 3d b3 51 10 3e 48 fa b7 3d 61 1a 9c be
       0.06470668 0.14093666 0.08983284 -0.30488876
000060 e5 03 14 be 63 04 a3 3e e3 28 1f be 7c 8c 5f be
       -0.1445461 0.31839284 -0.15542941 -0.21830934
000070 e2 a8 3d be 9f 88 bb 3e c4 3e 63 3c 64 92 92 3c
       -0.18521455 0.3662767 0.013869945 0.01789207
000080 d8 d0 fc bd fd aa 97 3e 39 56 9a 3c ab 5a 0c 3e
       -0.12344521 0.2962264 0.018839942 0.13706462
000090 9b f9 07 be 21 0e a7 3e 4f 91 3b bc b6 a5 18 3c
       -0.1327881 0.32627967 -0.0114482185 0.009316852
0000a0 91 d9 d2 3d 49 6f dc 3d e9 56 51 3e 2f a0 60 3e
       0.10295404 0.107634135 0.2044331 0.21936105
0000b0 2b f1 52 be dd 69 a7 3d 05 33 dc 3d 00 20 08 3e
       -0.20599811 0.08174489 0.10751919 0.13293457
0000c0 ed 86 c0 3c a3 38 87 bd d8 a0 f2 be 56 25 2c 3e
       0.023501838 -0.066025995 -0.4738834 0.16811118
0000d0 ee 97 36 3e 08 39 78 3e f6 4b 17 3d 5d 7c 1f be
       0.17831394 0.24240506 0.036937676 -0.15574785
0000e0 05 4a 98 3d a6 2c fa 3e 58 a5 09 3e 46 d1 54 3e
       0.07435993 0.4886219 0.1344198 0.20782956
0000f0 d9 0d ac bc 7d be 78 3c 59 cf 8f 3e 7a 8e 98 bd
       -0.021002697 0.015182135 0.2808788 -0.0744905
000100 ff cb 33 3e e2 41 f4 3d d3 31 c3 bd 61 b0 b3 3d
       0.17558287 0.11926629 -0.095309876 0.08773876
000110 1a 11 ef bd 70 35 3c 3d b3 fb 9c bd 45 d2 09 be
       -0.11673184 0.0459494 -0.07665195 -0.13459118
000120 52 d8 b1 bd 14 f6 9d 3d 3b 32 2f 3d 84 b4 71 3d
       -0.08683838 0.07712951 0.042772513 0.059010044
000130 e2 d6 3c 3e f1 d9 04 be 95 cd dd bc 8b 51 be 3d
       0.18441346 -0.12973763 -0.027075568 0.09292897
000140 99 37 ac bd 71 05 ec bc 9b 08 cd bd af bb 5d bd
       -0.08409042 -0.028811188 -0.10011407 -0.054134067
000150 0d a0 1e bd 45 54 d9 3d 50 42 63 be 86 0f 67 3d
       -0.038726855 0.10611776 -0.22193265 0.05641129
000160 27 b0 e3 bc 25 cf 0b be 98 f3 9f bd cf 82 30 3e
       -0.027793957 -0.13653238 -0.07810134 0.172374
000170 ec 92 bb 3d 4b 87 10 be 26 28 32 be 76 94 bb 3d
       0.091588825 -0.1411411 -0.17398128 0.09159176
000180 56 68 0c 3d ae fd 62 bd a1 96 2f 3d d0 a8 28 3c
       0.03427919 -0.05541771 0.04286826 0.010294154
000190 96 e5 11 bd c9 ae 54 3d b3 e0 6d bd 58 ab d7 bd
       -0.03561934 0.0519245 -0.058075618 -0.10530728
0001a0 61 8e aa 3d d8 35 26 be 50 b5 f9 bd cb 66 68 3d
       0.08327938 -0.16231477 -0.12192786 0.056738656
0001b0 e5 c3 85 3d 33 d4 10 be 8e 57 f2 3d 06 4c 5d bd
       0.065315045 -0.14143448 0.11833106 -0.05402758
0001c0 c2 8b 72 3c f2 cf dd 3d ef ca 83 3e d7 1f c1 bc
       0.014803829 0.10830678 0.25740764 -0.023574753
0001d0 f3 93 46 3d 86 86 c7 bd ce d9 08 3e 3a 1a 66 3c
       0.04848094 -0.09742455 0.13364336 0.014044339
0001e0 64 bd 35 bd e9 c3 3a bd e9 5b a0 3d 2e e1 9a bd
       -0.04437007 -0.04559699 0.078300305 -0.07562481
0001f0 e1 e8 84 3e 14 f0 4f be a9 f4 71 3d 6a e1 8c 3d
       0.25958923 -0.20306426 0.059071217 0.06878932
000200 07 a7 61 be dc da 15 3e 69 12 0d 3c 2f 20 0d be
       -0.22036372 0.1463427 0.008610346 -0.13781808
000210 00 96 b8 3d 2d 7a c6 3d 80 99 de 3d 08 61 81 3d
       0.09012985 0.09691272 0.108691216 0.06317335
000220 7a cb 15 3e cc 21 82 bc d4 9d 86 bd 1a eb ef 3d
       0.14628401 -0.015885256 -0.06573072 0.11714764
000230 42 35 3b 3e 8a 40 5c 3d fa 07 c4 3d 63 d4 ec 3d
       0.18282035 0.053772487 0.09571834 0.11563947
000240 17 7c 1d 3e b2 0f f7 bc a3 85 97 3c aa 38 0d be
       0.15379368 -0.030158851 0.01849634 -0.13791147
000250 d0 33 51 3e e2 85 03 3e d6 72 b9 3d bc ef 38 be
       0.20429921 0.12844041 0.09055106 -0.18060201
000260 b9 b5 07 bb 33 77 e9 3d 20 a1 b1 3c e9 34 d5 bc
       -0.002070768 0.113996886 0.021683276 -0.026026206
000270 82 76 09 3b df b0 2f 3d 55 0e cd bc a5 f3 fc 3c
       0.0020975177 0.042893287 -0.025031248 0.030877898
000280 f8 91 ad 3c b7 7d 46 bd db 5e f0 3c a8 ac 23 bb
       0.021187767 -0.048459735 0.029342106 -0.0024974737
000290 80 a2 40 be 31 69 13 3d fd cd 14 be 39 ce 38 be
       -0.18811989 0.03598899 -0.14531703 -0.18047418
0002a0 ae 29 d4 bd 27 a6 ff bc d9 31 2b 3d 28 d1 9e bc
       -0.10359512 -0.031207157 0.041795585 -0.019386843
0002b0 26 c1 39 be 63 ec 0f 3d 93 c5 07 3b 0a 6a df 3d
       -0.18140087 0.035137545 0.0020717129 0.10908897
0002c0 3a 9e 05 bd 80 c1 32 3e 71 0f 1b 3e 4c 31 6f be
       -0.0326216 0.17456627 0.15142609 -0.23358649
0002d0 af 00 b5 3d c9 48 94 3d f3 5a c9 3c 89 b4 d7 3c
       0.08838021 0.07240445 0.0245795 0.026331203
0002e0 c5 22 11 3d f5 7b 37 3e a5 46 77 bd 3d 5e ab bb
       0.03543355 0.1791838 -0.060370106 -0.00522974
0002f0 11 1f 03 be a3 9d a9 bd bf 9e 03 bc ca 5e d1 bd
       -0.1280482 -0.0828202 -0.0080334535 -0.10223158
000300 82 aa 1d bd 18 fb 31 3d 43 02 1f be ff d4 93 bd
       -0.038492687 0.043452352 -0.15528207 -0.0721836
000310 70 77 fa 3d 7b 85 3e 3e 5c b8 85 3d 79 01 44 bd
       0.12229812 0.18605606 0.065293044 -0.047852967
000320 a6 c5 db bb c0 3b 47 bd a6 0e 82 3d c5 21 cc 3c
       -0.006706911 -0.048640966 0.0635045 0.024918446
000330 77 d0 35 3e df 1f 2e bd d1 fc a5 3d 9e 56 86 bd
       0.17755304 -0.042510863 0.081048615 -0.0655949
000340 33 ab e5 3d 13 41 ba bd c1 d6 56 bd d1 d5 f9 bd
       0.11214294 -0.09094443 -0.0524509 -0.12198985
000350 1e 85 2c 3e 3d 3c 9b 3c 71 a4 ce bd 26 ca 42 be
       0.16847655 0.018949622 -0.100899585 -0.19022426
000360 de a7 84 be ce 48 e5 3c 7a 39 a0 bc 74 ca c2 bd
       -0.25909323 0.027988818 -0.019558657 -0.09511271
000370 b9 03 85 bd 6d 61 d7 3d 02 74 1d be fa 7e 21 3b
       -0.06494851 0.10516629 -0.15376285 0.0024642334
000380 91 70 8a bd 5e 6b f8 3d ba 3d 42 ba 3e 60 0c 3e
       -0.067597516 0.12129854 -0.00074097107 0.13708588
000390 37 2a 2c bd 2e 82 ba 3d 01 57 d0 bd ac c0 e5 3d
       -0.042032447 0.09106861 -0.10172845 0.1121839
0003a0 3d ae 9b bb cd 9d 0d 3e e6 b9 96 bb ac c4 63 bd
       -0.0047509954 0.13829727 -0.0045997975 -0.055607483
0003b0 cc 36 26 be 24 cf 1f 3d e4 71 0a 3e 46 66 ec 3d
       -0.16231841 0.039015904 0.13520008 0.115429446
0003c0 99 ab 7c 3b d7 d6 b4 bd 74 49 e2 bb 97 15 68 3e
       0.0038554429 -0.0883004 -0.006905729 0.22664486
0003d0 c8 61 01 3e a5 61 ff 3d 65 9f 7b 3d a0 8d 19 3b
       0.12634957 0.12469796 0.061431307 0.0023430362
0003e0 01 f1 8d 3d 79 38 65 bd 10 47 06 3d 56 9b f8 3d
       0.069307335 -0.05596206 0.032782614 0.12139003
0003f0 0f 77 18 3e 02 39 2b 3d 5f b9 a2 3c 43 51 56 be
       0.14889167 0.041802414 0.019863782 -0.20929436

encoder.bias_ih_l0 f4 [256]
000000 7c b0 35 3e 53 e0 bd bd ea a9 13 3e 79 0b 4d bd
       0.17743105 -0.09271302 0.14420286 -0.05005977
000010 51 90 0d 3e 85 83 5a 3c eb b1 df bd 0e 2e 4f 3c
       0.13824584 0.013337021 -0.10922607 0.012645258
000020 2c f3 91 bd 94 a6 f3 3d 8a 69 10 bd ff 79 6b bd
       -0.071264595 0.11897007 -0.0352569 -0.05748939
000030 de 0a a0 bd 48 7b ac 3d 1e 2d 55 3d 4f ec 02 be
       -0.07814573 0.084219515 0.05204498 -0.12785457
000040 2d ed 31 bd 44 69 f1 bc a3 73 bc bd 65 8d e5 bd
       -0.04343908 -0.02946914 -0.092017435 -0.112086095
000050 02 a2 1f 3e 8f 24 80 bd 0f 80 6c bd ef 80 5a 3d
       0.15589145 -0.06256973 -0.057739314 0.053345617
000060 b1 bf 72 3d 64 d4 8a 3d 90 54 ad bd 9a f4 a2 bd
       0.059264842 0.067787915 -0.08463395 -0.0795681
000070 fc 9c 95 3c 96 83 5c bd dd 44 4c bd 1c a0 9e bb
       0.018263333 -0.053836428 -0.04987036 -0.004840864
000080 ca 11 b9 bd e2 cb 0a bc 70 37 94 bd 38 a0 75 bd
       -0.09036596 -0.008471461 -0.07237136 -0.05996725
000090 ba c7 23 bc 31 03 23 bd 77 2b 1e 3d f8 af fc 38
       -0.009996349 -0.039797965 0.03861567 0.00012049073
0000a0 14 1d e9 bc 3e f0 96 bd f3 0d b1 3d 46 a9 d7 bd
       -0.028456248 -0.07370041 0.08645239 -0.10530333
0000b0 d7 44 26 3b ab af d0 3d 16 90 ff bd ec 69 8c 3b
       0.0025370622 0.10189756 -0.12478654 0.004285088
0000c0 70 fc b5 bd f9 b5 eb ba 23 87 91 3e 8e 69 ac 3d
       -0.08886039 -0.0017983309 0.28423414 0.084185705
0000d0 86 42 0f 3d 7a 19 1c 3d 06 c4 6d bd 08 81 45 bd
       0.03497555 0.038110234 -0.05804827 -0.048218757
0000e0 77 e3 9b 3c 64 20 c7 bd 9c 53 e3 bc 68 61 2c 3d
       0.019029362 -0.09722975 -0.027749829 0.04208508
0000f0 e7 f2 08 be c8 76 87 bc c6 68 fb bd 0c f4 0f 3e
       -0.1337391 -0.016536132 -0.12275843 0.1405794
000100 94 73 be 3c 8e a9 a4 bd b8 94 b2 3b c3 7e 01 3e
       0.023248471 -0.080401525 0.0054498576 0.12646012
000110 c5 85 58 3d b0 42 29 3e a6 6d 11 3e 7e e0 a3 3c
       0.052861948 0.16529346 0.14201984 0.020004507
000120 ea ed 05 bd 6d b5 81 3d 3b bd 68 3d ca ff 3f bc
       -0.032697596 0.06333432 0.05682109 -0.0117187
000130 56 0b b6 3d 54 0c 95 bd 14 e7 84 3d a5 74 8a 3e
       0.08888881 -0.07277742 0.06489387 0.27042118
000140 f8 3b f0 3d 04 59 93 bd e1 d3 e6 bc 36 1f c8 3d
       0.11730188 -0.07194713 -0.028177204 0.09771578
000150 59 d3 86 3d 6c 8c 53 3d e6 b5 9a 3c 3d 3c 01 be
       0.0658328 0.05164759 0.018885564 -0.12620635
000160 48 54 0f 3e 17 94 07 bd 96 e0 6d 3c c4 77 2a 3d
       0.13996994 -0.033100214 0.0145188775 0.041618124
000170 52 cc 1a 3e f9 ae 74 3d 58 b1 dd 3b 3c fd c5 bc
       0.15117005 0.05973718 0.006765526 -0.024168603
000180 dc f8 2d 3d 3e d9 17 bd e7 5b 96 3c e1 83 05 bc
       0.04247366 -0.037072413 0.01835437 -0.008149118
000190 e1 4f 12 be fe 27 9a bb b9 74 03 3d f1 b4 cb 3d
       -0.14288284 -0.0047044745 0.032093737 0.09946621
0001a0 28 e7 a5 3c 4b 26 5f bd fc a7 b0 3d 17 fa a0 3c
       0.020251825 -0.05447988 0.086257905 0.019650502
0001b0 f8 66 1c 3e 50 59 37 3e e0 26 ee bc d8 69 6e 3e
       0.15273654 0.17905164 -0.029071271 0.23282564
0001c0 37 19 ca bd 8d 3f d9 3c fb b6 80 3e 4c 08 51 3d
       -0.098680906 0.026519561 0.25139603 0.051033303
0001d0 93 ba 1e 3d ed e3 7f bd bb e8 96 bc 88 a0 bd 3c
       0.03875215 -0.062473226 -0.018421521 0.023147836
0001e0 7e b3 4c bd fa ca 1d 3c 7d 93 8b bd 1a 10 05 bc
       -0.049975865 0.009630913 -0.068152405 -0.008121515
0001f0 f8 df 8a 3d c5 b4 32 3e d6 ba e8 3c 55 3d 0f 3e
       0.06781 0.1745177 0.028409403 0.1398824
000200 94 07 3f be c7 6c cf 3d 29 b5 db bd c8 f3 9e bc
       -0.18655235 0.101281695 -0.10727913 -0.019403353
000210 8f a6 22 3d 94 b9 f0 bc bc 24 b0 3d d7 53 0e 3d
       0.039709624 -0.029385366 0.086007565 0.034747925
000220 5f 81 20 3c c1 8e 80 bd 88 bf 61 3c 99 9e 01 bd
       0.0097964695 -0.06277228 0.013778575 -0.03164539
000230 65 50 c5 bc 4a 52 d7 bc d6 38 f0 bd 2f ca b7 3d
       -0.024086187 -0.026284356 -0.117295906 0.0897411
000240 20 d1 b5 3d 9f 55 16 bd 87 26 ac 3b dd 66 c8 bd
       0.08877778 -0.03670275 0.0052536163 -0.097852446
000250 ac b8 34 3d 85 9b ee 3d c3 b2 1f 3e 55 f1 45 bd
       0.04412143 0.11650757 0.15595536 -0.048325855
000260 9a 5f 91 bd 29 83 c1 3c 39 53 84 bd ec a2 04 3e
       -0.07098313 0.023622112 -0.06461186 0.12952775
000270 0a ee bb bd 1d 98 18 bd a5 34 78 3d eb 8f 05 be
       -0.09176262 -0.03725444 0.06059708 -0.13043182
000280 fa f4 04 3d 9a 71 3f bd ba 0a ff 3d 99 b4 8a bd
       0.03246019 -0.0467392 0.12453218 -0.067727275
000290 17 47 51 bd 0b e3 8d 3d ff 2b 81 3d 1e 9c e7 3c
       -0.051093187 0.06928071 0.0630722 0.028272685
0002a0 ca 07 3a bd 6d ae 13 3d 1d ef 8f 3d f5 2a b8 bb
       -0.045417584 0.036055017 0.07028029 -0.0056203553
0002b0 22 50 28 bd 65 89 ad 3d 2e 23 22 be 1c f4 9d 3d
       -0.041092046 0.084734716 -0.15833732 0.07712576
0002c0 13 b7 0c 3d 64 3a 0c 3d 20 70 ac bd ce 4a 22 bd
       0.03435428 0.034235373 -0.08419824 -0.03962212
0002d0 1a 4d 0b 3e 8d 7e 7b bd 7c 4a f6 bd 3b 51 34 3d
       0.1360363 -0.061399985 -0.120259255 0.04402278
0002e0 2b e7 06 be 8d 7b f8 3c 55 12 95 bc a2 04 b8 3b
       -0.13174121 0.030332351 -0.018197218 0.0056157866
0002f0 bd 92 a1 bd 98 66 d2 3c 45 94 05 3d c8 57 96 3d
       -0.07889316 0.025683686 0.032612104 0.07340962
000300 75 42 2a 3e 76 36 c8 3c 52 e0 a4 3d 64 c1 30 bd
       0.16626914 0.024440031 0.08050598 -0.04315318
000310 75 cb 8b 3d 9c ba ae 3d d9 e4 a1 3d 6a 61 a4 bd
       0.06825916 0.08531687 0.07904977 -0.08026393
000320 86 f0 f9 bc 17 ec 59 3e 1e 93 9a 3d c4 7b 84 3d
       -0.030510198 0.21281467 0.075475916 0.06468919
000330 47 25 07 3e 4f 39 01 be f8 20 b8 3d 8a ce c9 3d
       0.13197814 -0.12619518 0.08990663 0.09853847
000340 f1 2d 3d 3c d8 00 a5 bc a7 47 4d 3d bf ee 25 3d
       0.011546598 -0.020142004 0.05011716 0.04051089
000350 a1 7e ac 3c 2e 13 ff 3c 86 83 31 3d 2b 47 fa 3d
       0.021056475 0.031137075 0.04333832 0.122206055
000360 13 13 88 bd dd 15 44 3d d8 2d 27 3d 21 52 cd 3d
       -0.06644263 0.047872413 0.040815204 0.100254305
000370 fe a9 3a 3d b5 07 f8 bd 74 ad b8 bd 7b 7e eb 3d
       0.045572273 -0.12110845 -0.090174586 0.114987336
000380 3d 6a 69 3c 47 b4 ee bb ef 79 c8 bd ea 40 d7 3c
       0.014246521 -0.0072846743 -0.09788882 0.02627607
000390 52 35 b3 bb 1a 97 4b bd 3b d3 f9 3c b8 05 a9 3d
       -0.0054690028 -0.04970465 0.03049623 0.08253044
0003a0 a1 6c 93 bd 55 48 40 bd 38 e0 a8 3d 26 27 c8 bc
       -0.07198454 -0.04694398 0.08245891 -0.02443273
0003b0 b0 26 2d 3d 43 d0 b9 bb fe 1c c9 bd 7c 60 36 3e
       0.042273223 -0.0056705787 -0.09819983 0.17810243
0003c0 04 49 64 3d e5 ea 71 3d aa 26 84 3e 09 54 c3 3c
       0.055733696 0.059061904 0.25810748 0.023843782
0003d0 e7 8a c1 3d 8f 42 83 3b cb 76 e7 3d 04 7f 93 bd
       0.09450322 0.004005737 0.11301955 -0.07201961
0003e0 6f 28 78 3b ca 9b 23 3e 6c ed 9c bc 8c e9 45 bd
       0.0037865897 0.15977398 -0.01915618 -0.04831843
0003f0 e6 b7 30 bd 06 f3 08 3e 80 dd 7e bd 14 ff e9 3d
       -0.04314413 0.13373956 -0.062222958 0.114256054

encoder.bias_hh_l0 f4 [256]
000000 f5 0e 01 bd 89 4c 8f bd f7 6d b9 3d 9d 61 e1 bd
       -0.031508405 -0.0699702 0.09054177 -0.110049464
000010 df c3 28 3d a2 82 d9 3d 53 e1 e0 bd ff f4 ec 3d
       0.041202422 0.10620619 -0.10980477 0.11570167
000020 27 5f 03 bc fc fa c4 3d 7a 74 84 bd fd a4 8d 3a
       -0.008018292 0.09618184 -0.06467529 0.0010806617
000030 05 9d d5 bc 33 69 ef bc a0 08 ec bd 08 12 5c 3d
       -0.02607585 -0.029224968 -0.115250826 0.053728133
000040 d3 f1 7f bd 69 11 bb bd 2a 66 b4 3d e7 cd 1f be
       -0.06248648 -0.0913418 0.08808549 -0.1560589
000050 ab 85 ac b9 8e ba ad 3d 68 b3 32 3e 6b c7 8d bc
       -0.00032905987 0.08482848 0.1745125 -0.017307004
000060 c1 06 c4 bd cd 9f d3 bd f6 03 1d bd 8a 36 9f bd
       -0.09571601 -0.10333214 -0.038333856 -0.077740744
000070 b3 f6 21 bd f3 3f 96 3d e1 48 a2 3d 3c d2 91 3d
       -0.03954191 0.07336416 0.07924057 0.07120177
000080 e6 7c 52 3d 68 43 e3 3d f0 84 54 3d 41 77 9c bd
       0.051388644 0.11096841 0.05188459 -0.076399334
000090 8b df f4 bb a8 28 40 3d fb d7 ef bd 38 27 87 bd
       -0.0074729375 0.046913773 -0.11711117 -0.06599277
0000a0 cd 1e 7b bd 6c 9e 47 3c e6 76 3e 3e 0e ba 51 bd
       -0.06130867 0.012183767 0.18600044 -0.051202826
0000b0 59 6d 22 3d d3 42 bb bd 1b 28 21 bd c3 c8 bf 3d
       0.039655063 -0.09143605 -0.03934489 0.09364464
0000c0 30 c2 09 bd 59 06 9b 3d 11 8b e5 3d ef 2d a1 3d
       -0.033632457 0.0756957 0.112081654 0.07870089
0000d0 ac 9e d5 bd 0d eb b2 3d 2a fe e7 3d 67 81 d7 bb
       -0.10430655 0.08736239 0.11327775 -0.0065767053
0000e0 6a 70 c4 bd 42 f2 a3 bd fe 07 11 be 2b 64 64 bd
       -0.09591754 -0.080051914 -0.14163205 -0.05575959
0000f0 47 e6 10 be 8a 9b e8 3d 4a 7a 21 be 70 a0 43 3d
       -0.14150344 0.11357792 -0.15769306 0.047760427
000100 d8 a2 51 3d 53 0a 09 3d b6 0b dc bc d5 ab 6f 3c
       0.05118069 0.03345711 -0.026861053 0.01462837
000110 c9 00 a7 3d 76 06 96 3d 2c 9a c7 3c 93 58 02 3e
       0.08154447 0.07325451 0.024365507 0.12729101
000120 ac 3d ca bd e2 af 59 3e e0 b2 a8 3d 38 b6 14 be
       -0.09875044 0.212585 0.08237243 -0.14522636
000130 5c c8 45 3e 72 39 d8 3d 3f 26 9e bc f4 24 84 3e
       0.19314712 0.10557832 -0.019305347 0.25809443
000140 b6 69 3c bd cc 7b 8d 3c 35 75 14 3c ab 27 fc 3d
       -0.04599925 0.017270945 0.009061147 0.123122536
000150 a9 98 c6 3d 9e f0 b1 3d 08 71 dc 3d 8b 35 89 3d
       0.09697086 0.08688472 0.107637465 0.06699666
000160 17 1e a2 3d 57 d1 fc bb 56 61 a1 3d f4 45 bf 3d
       0.079158954 -0.007715385 0.078798935 0.093395144
000170 fb af e8 bc 11 38 b9 bb ab 45 ee bc 91 68 0a 3e
       -0.028404227 -0.0056524356 -0.029085955 0.13516451
000180 59 9e 04 bd db 1e c9 3d c4 14 c4 3d 3c fd 08 3d
       -0.032377575 0.09820338 0.09574273 0.033444628
000190 f1 fd 7f bd 4f 92 f8 bd 9c 51 03 3d be 75 13 3b
       -0.062498037 -0.12137281 0.03206025 0.00225006
0001a0 5e 54 88 3d 6c fc 01 3b 07 c1 fb 3d e7 20 f0 3b
       0.06656717 0.0019834293 0.122926764 0.007328141
0001b0 6c 14 83 3d 95 98 80 bd 1e 7d e8 bd de 15 da 3c
       0.064003795 -0.06279103 -0.11351989 0.026621755
0001c0 b1 4d e3 bd 26 f5 ed 3d f4 20 95 3e 5c 46 10 3d
       -0.11098803 0.11619024 0.29126704 0.03522335
0001d0 a4 b0 19 3e f7 a2 13 bc 29 67 c9 3c b6 0e 54 bd
       0.1500879 -0.009011022 0.024585323 -0.051771842
0001e0 d6 1a be bd 0b b2 72 bd 67 8c 4a 3d d8 29 b5 3d
       -0.09282462 -0.059251826 0.049450304 0.08845872
0001f0 24 8d 90 bd 4a 13 6d bd 67 4a dd 3d d2 d8 ba 3d
       -0.070581704 -0.057879724 0.10805207 0.091233864
000200 ea 79 ef bd 10 93 00 3e f1 99 ae bd 6a ef 5a 3c
       -0.11693175 0.125561 -0.08525456 0.013362745
000210 13 1a e4 3d d3 8d 0e bc e1 2a a6 3c 69 2c a3 3d
       0.11137786 -0.008700806 0.020284118 0.07967455
000220 ce 9f 87 bd 44 96 c8 bd f4 55 8a 3d 26 e4 06 3d
       -0.06622277 -0.09794286 0.067546755 0.032932423
000230 8b 5b 9d 3c cc 7c fd 3d 82 a7 c9 bc e4 db 09 be
       0.01920869 0.12377319 -0.024616007 -0.13462788
000240 90 59 1f 3e 03 6c 5d bd 43 bd 88 bd c1 c2 3f 3d
       0.15561509 -0.054058086 -0.06676724 0.04681659
000250 8d 66 06 3e 9b 06 dc 3d e1 32 08 bd aa 88 f1 bd
       0.13125058 0.107434474 -0.033251647 -0.11793645
000260 66 d8 96 3d ed 22 6c bd 2d e0 d6 3d 60 70 14 3d
       0.073654935 -0.057650495 0.10491977 0.03623998
000270 35 ac 87 bd 39 1a dc 3c 3e 9c 18 3e d5 70 08 be
       -0.06624643 0.026867973 0.14903352 -0.13324292
000280 09 ef 0c be cb f3 ae bd 13 54 d8 3d 64 d6 65 bc
       -0.1376306 -0.085425936 0.10562911 -0.0140281655
000290 85 fe 13 3d 25 97 2a 3d 30 49 b7 3d 9f 6c 1c 3c
       0.0361314 0.04164805 0.08949506 0.009547382
0002a0 47 0e e1 3c 74 03 39 3d f1 6c f6 3d c4 0e a8 bc
       0.027472628 0.04516931 0.12032498 -0.020514853
0002b0 e7 38 a7 3c bd 3d df 3d 8f 98 65 bd 4f fb 7f 3d
       0.020412875 0.109004475 -0.056053694 0.062495526
0002c0 32 e6 f0 3d 7c f5 45 3d 72 6f a8 bd ae 4e be bd
       0.11762656 0.048329815 -0.082243815 -0.09292351
0002d0 c7 59 16 3e cc c6 2b bd 8a c8 c6 3d c4 62 fe 3c
       0.14682685 -0.041937634 0.097062185 0.031052954
0002e0 8a 36 31 bd 22 55 07 3c 99 f9 e9 bd 5e f1 9f bc
       -0.043264903 0.008260043 -0.1142456 -0.019524273
0002f0 64 a2 10 3e 92 a1 c7 bd 3e a4 ba 3d 10 7b dc bc
       0.14124447 -0.09747614 0.09113358 -0.02691415
000300 88 4a 53 3e 17 3e db bc f4 6c f3 bc ff 00 a6 3d
       0.206339 -0.026763005 -0.029715039 0.08105659
000310 cd 8e 26 bc 72 5d 79 3d 0c 59 e6 3d e5 8d 19 bd
       -0.010165882 0.060880132 0.11247453 -0.037488837
000320 45 70 00 be f4 e6 03 3e 37 c7 61 3b d1 9f a4 bc
       -0.12542827 0.1288107 0.0034451017 -0.020095738
000330 dc 8e 28 3c 3d 4b b4 3d 43 7f 28 3d 0e e1 b0 3d
       0.010287967 0.08803413 0.04113699 0.08636676
000340 da c8 52 3d 51 3e 64 bd af 4c c1 bc 38 dd 5a 3d
       0.05146108 -0.055723492 -0.023596136 0.053433627
000350 a6 20 96 3d 28 09 67 bd df 00 1d bd 78 6c d2 3c
       0.07330446 -0.056405216 -0.03833091 0.025686488
000360 66 81 0f 3d dc 30 9a 3d 66 0f 8c bc 1d 78 01 3e
       0.035035513 0.075288504 -0.017097186 0.12643476
000370 0d b9 96 3d 7d 52 a1 bc 9b 95 13 3d 61 dc c6 3d
       0.073595144 -0.019692654 0.036031347 0.09710003
000380 40 f6 8a 3c 2f 29 4a 3d 59 14 7b bd 10 a7 8c 3b
       0.016963124 0.049355682 -0.061298702 0.0042923763
000390 ba ab 38 bd 08 50 d0 bd 91 fc 95 3d 5d 23 d2 3d
       -0.045085646 -0.10171515 0.07323564 0.10260651
0003a0 e5 00 58 3d 8c bb 64 bc ae e5 98 3c 97 a3 9c bc
       0.052735228 -0.01396073 0.018664207 -0.019120974
0003b0 b5 a8 12 3c f8 cb 03 bd 78 ea d7 bd 94 c9 4a 3e
       0.008951356 -0.03217694 -0.10542768 0.19803458
0003c0 9d 0c c0 3d ad 18 1d be a2 cb 82 3e 3c 34 d7 3d
       0.09377406 -0.15341444 0.25545985 0.1050801
0003d0 40 69 7e 3d 99 d4 8a 3d 2a e9 1b bd 80 7e fc bd
       0.062112093 0.06778831 -0.03806416 -0.123288155
0003e0 d8 0d eb 3d e3 71 88 3c dd 80 80 3c a3 61 b2 3d
       0.1147725 0.016655868 0.015686447 0.08710029
0003f0 cf 8e b8 bb d7 3e 61 3c 84 26 09 be 7a f0 56 bd
       -0.0056322585 0.013747892 -0.13393599 -0.05247543

decoder.weight_ih_l0 f4 [24, 64]
000000 9e fe 43 3f c0 d3 4a be e2 0c 68 3e 17 9b 80 3d
       0.7656039 -0.19807339 0.22661164 0.06279581
000010 db 82 92 3e e5 7a 67 3d 23 ec 0b 3e 73 28 80 bb
       0.2861546 0.056513686 0.13664298 -0.003911072
000020 da 06 0c bc f5 eb 88 bd 23 a9 97 bd 5e 53 ff be
       -0.008546555 -0.0668563 -0.07405307 -0.49868292
000030 ab 77 9d be 7c a2 c1 bd 44 f4 ca 3b 8e c7 47 3e
       -0.30755362 -0.094548196 0.0061936695 0.19509718
000040 c3 ea d2 3d 12 81 5d be 42 fb 8d 3e 92 4f 5f be
       0.102986835 -0.21631268 0.27730757 -0.21807697
000050 d6 b4 f1 3d d0 85 97 3e bb 01 5f 3e 4a ac 2e be
       0.1180207 0.29594278 0.21778004 -0.1705791
000060 1b ea a7 3e cb 8d cd be 86 79 57 3d 57 d0 27 be
       0.32795796 -0.40147242 0.05260613 -0.16388069
000070 f5 7f 15 bf a3 2f 4f 3e 86 c8 db 3e 97 3e c3 3d
       -0.5839837 0.20233016 0.42926425 0.095334224
000080 ef f0 64 3e 3b 47 1d 3e 9d a2 ec 3e 14 55 95 3e
       0.22357534 0.15359204 0.46217814 0.29166472
000090 a9 2a 8c be 50 24 be 3e 52 c4 1e 3e 8f 2b aa be
       -0.27376297 0.3713708 0.15504578 -0.33236358
0000a0 07 73 41 be 41 be 26 3f ad 73 ef be d8 8b e7 3e
       -0.18891536 0.65134054 -0.4676794 0.4522388
0000b0 e7 27 cf be 14 6a 28 3f cf 07 ed 3e 2a 0b 09 3e
       -0.4046013 0.6578686 0.4629502 0.13383165
0000c0 87 01 cd 3e 1c 0d 6e 3e 31 fe d0 be 63 fa 02 be
       0.40040228 0.23247188 -0.40818933 -0.12790827
0000d0 a9 1f 0a 3e 94 d3 6d be 5d f0 f4 3a df 4c af 3d
       0.1348864 -0.23225242 0.0018687356 0.08559584
0000e0 59 36 e7 3e 1a 50 19 3f 74 e3 81 3e af e6 df 3e
       0.4515865 0.5988785 0.25368845 0.43730685
0000f0 99 ec 30 3e 25 c0 bb bd 85 2d 42 be dd 41 92 be
       0.17277755 -0.09167508 -0.18962677 -0.28565875
000100 74 18 f5 be ef 89 90 3e db 00 47 bd a8 2f f0 be
       -0.4787022 0.28230235 -0.0485848 -0.4691136
000110 63 fe 35 3e ed 18 19 3e bc 46 7f 3e 76 9b 41 be
       0.17772822 0.14950915 0.24929327 -0.1890696
000120 52 ba 37 be 06 cd ad be 44 3e a4 3e 03 cd b9 be
       -0.1794217 -0.33945483 0.32078755 -0.36289224
000130 7f ab 8f 3e 15 88 cd 3e 5e d8 5f be 7b 7a e7 bd
       0.2806053 0.40142885 -0.21859881 -0.11302658
000140 8e 7d dd 3e c5 fb af 3d 67 1c 9d bd 07 04 87 be
       0.43259853 0.08592943 -0.07671433 -0.2637026
000150 e8 07 3e bd 25 35 85 be 99 f3 14 3f 07 bb 26 bf
       -0.04639426 -0.2601711 0.581842 -0.6512913
000160 0e 3a 75 3d bb 5b 11 bf 79 aa 81 be 3f 26 fa 3e
       0.05986982 -0.56780595 -0.25325373 0.48857304
000170 a5 aa f5 be 8e 45 93 bd 3a 66 63 3e 1a b4 31 3d
       -0.47981754 -0.07191001 0.22206965 0.04338465
000180 fc f4 f2 bd e7 4b 21 3e 61 7e ad 3e 6d 4b 6e 3e
       -0.11863133 0.1575161 0.33885482 0.2327096
000190 75 1a 83 be e4 a4 62 be 1f 57 49 bc ed bf f6 bb
       -0.25606123 -0.22133213 -0.012288838 -0.0075302036
0001a0 49 83 bf be 51 99 27 3e ae ab 3e be d3 38 a9 3d
       -0.3740485 0.1636708 -0.18620178 0.082627915
0001b0 04 61 ca be 19 ef db bc 44 40 ea be 5b 94 ea 3e
       -0.39527142 -0.02684741 -0.45752156 0.4581631
0001c0 a3 11 fe be 24 01 fe 3d f1 1c 95 3e 17 af bb bd
       -0.4962283 0.12402561 0.29123643 -0.09164255
0001d0 bc 84 34 3e 4a 74 a3 bd db 74 02 3f 51 57 91 be
       0.17628759 -0.07981165 0.5095956 -0.2838693
0001e0 a1 27 d5 3c 00 c8 10 be 44 5d 9e 3e 76 65 f3 3e
       0.026019873 -0.14138794 0.3093053 0.47538346
0001f0 ef d8 b8 3e 58 cd 84 be e2 86 ca 3e 44 83 ed be
       0.36103007 -0.25937915 0.39556032 -0.4638921
000200 28 85 a4 3e 96 27 97 3e b8 81 91 be 36 0c ea be
       0.3213284 0.2952239 -0.2841928 -0.4571244
000210 9c b5 21 3f 6d c0 59 3d c4 d1 7c 3e 6c af d2 3e
       0.6316774 0.053162027 0.24689394 0.4114946
000220 cd 7b 0e 3f 1d 91 cc bc 48 37 13 bd a2 25 90 3d
       0.55657655 -0.02497154 -0.035941392 0.07038428
000230 ac d1 0b bc 12 aa bc 3e ec 3d 89 3e a1 6e 70 3f
       -0.008533876 0.36848503 0.26805055 0.93918806
000240 00 8a 62 3e 61 79 8b 3d 93 45 30 be c5 df 29 bd
       0.22122955 0.068102606 -0.1721404 -0.04147317
000250 b4 b7 6b 3f d6 dc 5e 3e 34 18 ec bd 67 d1 02 3f
       0.92077184 0.2176393 -0.11528054 0.5110077
000260 49 ab a9 3e 1c d2 bf 3e 0f 5b 00 be e8 4a a7 be
       0.33138493 0.37464988 -0.12534736 -0.32674336
000270 35 d2 00 bf fc 26 11 3d df 35 3a 3e 4d c2 7f 3e
       -0.5032075 0.03543757 0.18184613 0.24976464
000280 0e be ef be 24 84 20 3f ba 85 00 3f 3a 3f a5 3e
       -0.46824688 0.6270163 0.5020405 0.322748
000290 be 31 ec be 3b 2d 63 3e 71 32 03 bf 02 6d bc be
       -0.461317 0.22185223 -0.5124884 -0.36801916
0002a0 bf ab dc 3e 09 7e 84 3e 2e 24 10 be 2b ff b0 3f
       0.43099782 0.25877407 -0.14076301 1.3827871
0002b0 92 be a9 be 89 c3 cf 3d 4b 94 35 3e 28 9c 37 3e
       -0.33153206 0.10144717 0.1773235 0.17930663
0002c0 7a da d3 bd 23 30 4c be 43 83 be be 37 fd ee be
       -0.103444055 -0.19940238 -0.3720952 -0.46677563
0002d0 a3 ef a6 3e 0a bc 73 3e 37 80 7c 3e a1 d0 15 bf
       0.32604703 0.238022 0.24658285 -0.5852147
0002e0 6a fd df bd 92 ad f7 3e 00 fd 9c bc 13 8f 8c 3f
       -0.10937007 0.4837461 -0.019163609 1.0981163
0002f0 c5 d4 c9 be bb 68 e1 3d f4 e9 e7 3d 43 41 38 be
       -0.39420143 0.11006304 0.1132392 -0.17993645
000300 70 7b 44 3f c8 ae 96 bd 7a fa c6 be 64 29 08 3f
       0.7675085 -0.07357556 -0.38862973 0.5318816
000310 92 e3 5e 3e 1b a6 56 3f 06 e1 41 3e 60 5d 83 3e
       0.21766499 0.83847207 0.18933496 0.25657177
000320 b7 fc d7 3e a9 b5 92 3e 03 44 55 be b6 bc f3 3e
       0.42184994 0.2865422 -0.20826726 0.47604913
000330 af a9 ba 3e 17 a6 d2 3e 25 c4 f7 3e ad 61 d5 3d
       0.36457583 0.41142341 0.48391834 0.10419021
000340 4b 4b e1 be fd 9d 8e be 37 46 02 bf d5 35 b3 be
       -0.44002756 -0.2785491 -0.5088839 -0.35002008
000350 17 60 22 3f 7e e6 98 3e 2f 78 b3 3e 1d 65 db bd
       0.6342787 0.29863352 0.3505263 -0.10712645
000360 2a 81 a4 be 1d ef ea bd bf 93 f3 3d da e1 ab be
       -0.32129794 -0.114713885 0.11893415 -0.3357075
000370 46 c7 3e bd 4c ca 93 3e a3 cb ff be bb 42 7a be
       -0.04657676 0.28865278 -0.4996005 -0.24439518
000380 2e 83 db be 18 3a 05 3f 67 37 89 3e 8d f1 3b 3e
       -0.4287352 0.5204177 0.2680008 0.18353863
000390 bb cb 80 3e a5 8c e7 3d 40 79 24 be 62 f8 da be
       0.25155434 0.11306123 -0.16061878 -0.42767626
0003a0 9d e4 31 3f a3 52 96 bd 9f 1b b0 3d 56 a8 18 3e
       0.6948946 -0.073399805 0.08599018 0.14907965
0003b0 b7 46 7d 3e 78 d3 99 be 5c ac 98 bd 00 6e 2f 3c
       0.24734007 -0.3004415 -0.0745475 0.010707378
0003c0 54 66 b7 3e 94 34 f5 3e 3a d8 0e be 4c e2 a3 3e
       0.35820258 0.47891676 -0.13949671 0.32008588
0003d0 31 35 49 bd 3c d6 02 3f 7a 6d 18 be 71 37 e5 be
       -0.049122993 0.51108146 -0.14885512 -0.4476886
0003e0 2a 04 a8 3e d3 a7 eb 3e e4 35 91 3e c5 fa bc 3e
       0.32815677 0.46026477 0.28361428 0.36910072
0003f0 ad 52 19 3d a8 59 a2 3c c2 4b f5 3e 35 61 1c bf
       0.03743236 0.019818142 0.4790936 -0.61085826

decoder.weight_hh_l0 f4 [24, 6]
000000 99 16 f3 3d c1 59 ad 3e 1f 1c 0e 3e 83 67 f1 ba
       0.118695445 0.3385754 0.13877915 -0.001841769
000010 42 6f cc be 08 0c 7e bd 1c 13 8d be 4e 19 d5 3e
       -0.39928633 -0.062023193 -0.27553642 0.41620868
000020 c3 04 c8 be f8 45 98 3d 62 1c 61 be a7 14 94 be
       -0.39066133 0.074352205 -0.21983483 -0.28922006
000030 41 37 79 be 69 76 9f 3e a3 01 95 be 22 d2 a7 3d
       -0.24337484 0.31145027 -0.2910281 0.081943765
000040 71 1a b0 3e 14 74 77 3c d5 d3 ce 3c 03 32 b2 be
       0.34395173 0.015103359 0.025247494 -0.3480378
000050 72 1d 03 bd 72 93 90 be e9 ac e8 bd 46 cb b5 be
       -0.032010503 -0.28237492 -0.11361105 -0.35506648
000060 86 e9 37 bd 9b 1c de be db 03 8e bb 8e 63 d0 be
       -0.04490044 -0.433812 -0.0043339557 -0.40700954
000070 4b 93 96 3e 74 0a cc be c1 17 88 3e 9d 4f a2 3c
       0.2940925 -0.39851725 0.26580623 0.019813353
000080 57 74 f7 3d 17 23 a6 3e 52 4b e4 bd 0d e7 26 3e
       0.12082737 0.32448646 -0.11147179 0.16299076
000090 d0 6c e0 bd 69 aa 56 3d 79 ba 96 bd 57 c1 87 3c
       -0.10958254 0.05240861 -0.073597856 0.016571684
0000a0 5b 03 05 3e ca cb 07 bf 5f a7 4e 3e ef 6e 50 3f
       0.12989561 -0.5304533 0.20181035 0.8141927
0000b0 f0 6a 82 3e 57 96 85 be 9b 22 25 3c 5e e0 29 be
       0.25472212 -0.26091263 0.010079051 -0.16589496
0000c0 f6 49 cb 3e 9f 6d da 3a 88 15 f9 3d 19 ad d6 3e
       0.39704865 0.001666475 0.1216231 0.41928938
0000d0 b8 12 a0 3e a7 3d 88 3e a9 fe 2c be 00 8e 7f bc
       0.3126428 0.26609537 -0.1689402 -0.01559782
0000e0 a7 2d a6 3e ae 8d 8a 3e 2d c0 2b be 09 46 62 3e
       0.32456705 0.27061218 -0.16772528 0.22097029
0000f0 e1 23 b5 bd 9d a2 96 3e 8d 16 18 be 1a 7f 1d be
       -0.08844734 0.2942094 -0.14852352 -0.15380517
000100 f4 25 5c 3e e5 94 ac 3e 7a fd 1e 3e 66 4c f6 3e
       0.21498853 0.33707348 0.15526381 0.48105162
000110 4a 9b dd 3e c5 d6 13 be 36 7d 3c 3e f5 df 1e 3e
       0.4328254 -0.14437397 0.18407139 0.1551512
000120 72 4b bc 3c 25 2d 8c 3e d1 4b 96 3c 77 cf a4 be
       0.022985194 0.27378193 0.018346699 -0.32189533
000130 a7 45 87 be 84 95 0f be 40 a4 80 bd fd 4c 19 be
       -0.26420328 -0.1402188 -0.06281328 -0.14970775
000140 3a af cc 3e f8 37 de 3d 8a b7 77 3e d3 c8 04 3f
       0.39977437 0.10850519 0.24191108 0.51868933
000150 44 8e 4b 3e ca 6e b0 3e e9 ef 33 3d a2 e9 43 be
       0.19878489 0.34459525 0.043929968 -0.19132093
000160 60 28 d6 3e 23 af 4e 3e 73 fb c7 be 5f 8c 93 bd
       0.4182768 0.20183997 -0.39059028 -0.07204508
000170 20 0d 41 bc f1 19 bf bd e4 e2 aa 3e a0 ee 2e 3e
       -0.011782914 -0.0933112 0.3337623 0.17083216
000180 de 7e b9 bd e2 4d d5 be 88 07 5c be 02 33 5e bc
       -0.09057401 -0.41660982 -0.21487248 -0.013561966
000190 e8 1a d8 bc ff 46 9c 3e 4c 8e c1 be ff a0 d3 bd
       -0.026380017 0.30522916 -0.37803876 -0.10333442
0001a0 c0 e7 54 3e 1c 98 05 be 7c fa b2 3e e5 2c 1f 3d
       0.2079153 -0.13046306 0.3495673 0.038861174
0001b0 0d 30 58 be ce 64 84 bd bd 01 eb 3c 53 3f 9f 3e
       -0.2111208 -0.064645395 0.028687352 0.31103
0001c0 2c 25 42 be 9a 3f 43 bc 38 63 bb be f6 40 08 bf
       -0.18959492 -0.011917019 -0.36599135 -0.5322412
0001d0 e1 31 e2 be 97 fc 9c be 2c 29 48 3d 66 f3 b7 be
       -0.4417868 -0.3066146 0.04886739 -0.35927886
0001e0 4c 67 f2 be c5 9b b9 bd 87 c3 10 bf 4f f3 17 be
       -0.47344434 -0.09062914 -0.5654835 -0.14838909
0001f0 91 ac 0a bf d4 ef 68 3e 07 f5 81 be 5a 84 36 3d
       -0.54169565 0.22747737 -0.25382254 0.044559814
000200 c5 c0 86 3e 3a 0d b7 3d 69 51 95 be 1c d6 21 be
       0.26318946 0.0893807 -0.29163674 -0.15804332
000210 ca 61 00 bf 36 3b 5c bd b8 32 a4 3e a4 d9 97 3e
       -0.50149214 -0.053767405 0.32069945 0.29658234
000220 fb 9c 2d 3e 9b 58 61 be 0f 50 6b be 66 2c 59 be
       0.16954415 -0.22006457 -0.22979759 -0.21208343
000230 d4 3d 07 be 8b 05 e1 be a6 c9 26 be 00 ee dc be
       -0.1320718 -0.4394954 -0.1628786 -0.4315033

decoder.bias_ih_l0 f4 [24]
000000 b2 37 eb bd 1c 83 18 bd 81 8e 9b 3e 23 63 59 bc
       -0.114852324 -0.03723441 0.3038216 -0.013268265
000010 61 1f 2e 3e bd 34 b4 be 38 bc ce bd ca c3 9f 3d
       0.17004158 -0.35196486 -0.10094494 0.07801016
000020 5b 1c bd bd 87 e8 66 be 79 d2 b8 be 55 16 aa 38
       -0.09233924 -0.2254964 -0.36098078 8.110391e-05
000030 a1 d8 e4 bc 66 cd 9f be 3d b9 56 3e 52 ea b0 3e
       -0.027935328 -0.31211394 0.209691 0.34553772
000040 56 94 a1 3e 8d e4 f4 3d 57 66 bf be 3c ee b3 be
       0.31558484 0.11957655 -0.37382767 -0.35142696
000050 dc 5b 9c bd 1d 82 97 3e 97 42 60 3d e7 b1 31 3e
       -0.07634708 0.29591456 0.054751005 0.1735302

decoder.bias_hh_l0 f4 [24]
000000 26 31 dc 3c 26 ba 82 3e 2f 8d 74 3e 5b 81 19 3b
       0.026878905 0.25532645 0.23881982 0.002342305
000010 bb e8 6f 3e 73 8c 4f 3e 17 33 78 3e 2d 5b c3 3e
       0.23428623 0.20268421 0.24238239 0.381555
000020 25 58 8b 3e 67 ae 70 3d 5f ed 55 3d e9 c4 15 3c
       0.27215686 0.058760073 0.052228328 0.009141185
000030 6c ad 88 be 0b 9e ed 3d 0a 1f 74 be 65 ed d0 bd
       -0.2669481 0.1160241 -0.23839965 -0.102015294
000040 83 98 c1 3e d6 8a c6 3e bf b0 2e be 48 61 91 be
       0.3781167 0.38777798 -0.17059611 -0.28394532
000050 d8 00 7c 3e cb 2e cb 3e c2 51 2b 3e 60 2a 14 be
       0.24609697 0.39684138 0.16730407 -0.1446929
