model_microservice/models/health_brain_pytorch.pth (torch, 208022 bytes, 9 tensors)

lstm.weight_ih_l0 f4 [256, 4]
000000 04 26 3e 3d d0 4c 09 be 18 04 73 3e 81 29 d6 3c
       0.046422973 -0.13408208 0.2373203 0.026142837
000010 c0 e6 f3 3c 97 7e 51 3d 66 5f 9f 3e 65 36 e3 bc
       0.029773116 0.051146116 0.3112747 -0.027735898
000020 bc df 9e 3d 18 38 48 bd 2a af 89 3e c1 d8 b8 3d
       0.07757518 -0.04888162 0.26891452 0.090257175
000030 38 25 4f bd 1d 0d 9d 3d 52 86 30 3e af 52 52 be
       -0.050572604 0.07668517 0.17238739 -0.20539354
000040 b4 16 c1 3d a6 93 23 3c f8 51 5a 3e e8 0a f4 ba
       0.094281584 0.009983933 0.21320331 -0.0018618973
000050 a0 1a 30 3c 86 12 19 3d 39 a6 f2 bd 1b ae 96 be
       0.010748535 0.03737118 -0.11848111 -0.29429707
000060 b2 ba b9 bd 63 84 a6 bd 09 f8 38 3e ec 86 e4 be
       -0.090688124 -0.081307195 0.18063368 -0.44634187
000070 ee b3 ba bd 2c 88 ca bc ca 48 b5 3e b3 39 54 be
       -0.0911635 -0.024723135 0.35407096 -0.20725136
000080 ee 74 e4 bd fb 81 1b be 55 da 37 be 58 19 0d 3f
       -0.11155115 -0.15186302 -0.17954381 0.55116796
000090 e8 54 a8 3d bb dc f9 3c a1 22 8f 3e fb 7c 13 bf
       0.082193196 0.03050076 0.27956107 -0.5761258
0000a0 d2 07 93 bd 55 3d ab 39 be e4 1c bc 08 8d b4 bd
       -0.07179226 0.00032661358 -0.009576021 -0.08815962
0000b0 00 a1 54 bb 32 f6 bc bd f5 9c 44 be ad f8 60 be
       -0.0032444596 -0.092266455 -0.192005 -0.21969862
0000c0 58 01 d2 bd ea 99 c6 bd de c2 a0 3c 7a 67 43 be
       -0.102541625 -0.096973255 0.01962417 -0.19082442
0000d0 b0 7b 8f 3d 55 71 9b be aa c5 1b 3e 2e e9 12 3e
       0.070060134 -0.30359903 0.15212122 0.14346763
0000e0 f4 16 04 bd 00 69 3c be 25 03 51 bb e4 b8 88 3d
       -0.032248452 -0.1839943 -0.0031892743 0.0667589
0000f0 ea 35 97 bd 69 9c c8 bd 33 f9 a2 3e cd f0 42 bc
       -0.0738333 -0.09795458 0.3183075 -0.011898232
000100 80 ec 08 bc 5a de 0c be 88 d6 2b bd 07 0c 67 3c
       -0.008357167 -0.13756695 -0.04195264 0.014101989
000110 9a 59 f7 bd 4a 6b a8 3d 39 fd b7 3e 50 d7 80 be
       -0.12077637 0.08223589 0.3593538 -0.2516427
000120 e4 91 3e bd 5a 39 98 bd 02 8d e4 3d 82 d2 7e 3d
       -0.04652585 -0.07432814 0.111597076 0.062212475
000130 b2 90 a0 3d 0c 96 1b 3e d1 6c 15 bd 4c 8d c0 3d
       0.078400984 0.15193957 -0.03648073 0.0940195
000140 b8 c4 da bd 80 44 5e 3c 1a 8f af 3e ea b2 c4 bc
       -0.106820524 0.013566136 0.34288865 -0.024011094
000150 06 a5 cf bd 1b eb 2b 3c b4 4b a3 3e 86 8f f8 3c
       -0.101388976 0.010493065 0.31893694 0.030341875
000160 30 55 44 bc 48 b5 ed 3d ba 33 61 3e 28 87 20 be
       -0.011983201 0.11606842 0.21992388 -0.15676558
000170 86 75 e7 3d 66 77 bf bd 2d cb a4 3e 2c 25 bc 3e
       0.11301713 -0.09348945 0.3218626 0.3674711
000180 cc 9e a7 3d 9a 86 d2 3d 78 25 9c 3e 5d c1 94 bd
       0.08184585 0.102795795 0.30497336 -0.072634436
000190 14 80 e5 bd 95 c6 52 bb 59 c3 e4 3d 2b 86 d0 3e
       -0.112060696 -0.003216182 0.11170072 0.40727362
0001a0 1c 06 53 bd e1 2f b1 3d 8a 8c 88 3e 94 29 e7 bd
       -0.0515195 0.0865171 0.26669723 -0.11287227
0001b0 38 e1 2a bd e7 a0 2b bd de a9 f4 3e ab 6e 20 be
       -0.04171869 -0.041901495 0.47785848 -0.15667216
0001c0 50 db 5d 3c 63 ea 6c 3d f9 17 e3 3e 35 17 29 3e
       0.013541058 0.057840716 0.44354227 0.16512759
0001d0 fc a4 21 bd 24 3e ca bd 64 07 de 3e d4 75 03 be
       -0.039463982 -0.09875134 0.43365014 -0.12837917
0001e0 f6 84 c7 3d 16 b5 9e be b3 0e 0a be 92 29 79 3e
       0.09742157 -0.30997533 -0.1348217 0.24332264
0001f0 46 33 d4 bd 16 c4 97 3c df 46 34 be 56 18 d0 bd
       -0.10361342 0.018526118 -0.1760516 -0.10160892
000200 ca a1 db 3d 64 4d 13 be 3c a3 79 be 3e 16 c0 3d
       0.10724218 -0.14384991 -0.24378675 0.09379242
000210 40 83 0a bb 79 4e 95 be ea c3 2c bc 6c 92 9f 3e
       -0.002113536 -0.29161432 -0.010544756 0.311664
000220 9a f2 b8 3d 65 2f aa bc ad 5d 13 3e c4 ef bd bd
       0.090306476 -0.020774553 0.14391203 -0.09274247
000230 84 b5 c7 bd 6d da 23 3e ab 39 06 3f c5 ce 18 3e
       -0.09751418 0.16001292 0.52431744 0.14922626
000240 40 88 1f bd ed 60 05 bf cf eb ad be 99 d2 b5 3e
       -0.038948298 -0.5210102 -0.3396897 0.35512236
000250 80 e2 31 bc 54 0e 0b be 2c f5 c0 3e c3 65 ff 3c
       -0.010857224 -0.13579684 0.3768705 0.031176453
000260 ba 15 cb 3d a3 f0 88 3d 1f 7b d4 3e 39 71 99 bd
       0.099162534 0.06686523 0.41500184 -0.07492299
000270 5e 2f aa bd 5e 74 3a bd d3 a5 c4 3e 29 02 a8 3d
       -0.08309816 -0.045521133 0.38407764 0.08203537
000280 5c 88 c1 bd 82 e9 4a bd 47 e3 92 3e 1a f7 2e bd
       -0.094498366 -0.049539097 0.28689024 -0.042716123
000290 d6 67 91 bd 82 df d9 bc 0a 6b 9c 3e d8 fe 23 bd
       -0.07099883 -0.026595835 0.30550414 -0.04003796
0002a0 50 ff fc bc 3d 42 ab bd 02 b4 e7 3e 5c d3 25 bf
       -0.030883461 -0.08362243 0.45254523 -0.64775634
0002b0 fc 74 6f 3d bd 9d b0 3e 8d e2 09 3f de 8a d9 be
       0.058461174 0.34495345 0.53861314 -0.4248876
0002c0 ca f4 f1 bd 7c 8e 9a bc cf 04 aa 3e 93 af 9b be
       -0.11814268 -0.01886677 0.33206794 -0.3040739
0002d0 0e 64 b3 3d ac 00 7e bd cd 36 87 3e f5 88 61 be
       0.08759318 -0.06201236 0.26408997 -0.22024901
0002e0 40 e8 27 bd eb 17 19 be 2d 16 f4 be f7 10 d8 3e
       -0.040992975 -0.1495053 -0.4767317 0.42200443
0002f0 1c e8 c2 3d c7 d1 81 3d a7 5e ba 3e 30 7f 9c be
       0.095169276 0.0633884 0.3640034 -0.30565786
000300 80 47 b6 3c ae d1 5a 3d 13 8c b2 3e d9 bf 4f be
       0.02225089 0.053422622 0.34872493 -0.20288028
000310 44 97 ad bd 7f 9d cf 3c b6 25 9b bd 59 35 c6 bd
       -0.08476117 0.025343655 -0.07575552 -0.09678144
000320 50 5f 8e bc ea f4 fc 3d 17 bd 9c be 9b 35 47 be
       -0.017379433 0.12351401 -0.30613014 -0.19454043
000330 40 71 b2 3b 2e e0 b0 3d a0 fd e8 3d 9d b9 ed be
       0.0054456294 0.08636509 0.113765 -0.46430674
000340 82 5a b1 bd f4 32 4e 3e 63 59 11 3f b3 2e e3 3d
       -0.08659841 0.20136625 0.5677702 0.110928915
000350 96 51 ec bd 95 83 9f 3d e2 0e af 3e 77 b4 5e 3e
       -0.11538999 0.07788769 0.34191042 0.2174853
000360 04 c9 9a 3d 52 e1 20 3e 37 2e ab 3e 90 bf a4 bd
       0.07557872 0.15710953 0.33433697 -0.0804435
000370 aa 93 dc 3d cb d6 06 3d 41 56 5d 3e f8 a2 06 be
       0.10770352 0.032919686 0.21614935 -0.13148105
000380 5c 71 b9 bd 2c 5c e3 bd 06 dc f1 3e 2b c1 16 bd
       -0.09054825 -0.11101565 0.47238177 -0.036805313
000390 c0 33 c0 3d 6d c4 14 be 58 14 69 3e e9 0b 13 be
       0.093848705 -0.14528055 0.22761667 -0.14360012
0003a0 94 9a 10 3d 10 31 33 bc a7 3f 13 3e c2 c7 6b 3d
       0.035303667 -0.01093699 0.1437975 0.05756355
0003b0 aa d6 e3 bd 69 b4 ac be 1f 7e e7 3c 90 69 b8 be
       -0.11124928 -0.33731392 0.028258381 -0.36018038
0003c0 94 bf b8 bd c5 a3 36 be 9d a9 68 3e b7 fd 20 3e
       -0.09020916 -0.1783591 0.22720952 0.15721785
0003d0 9a 1a a6 bd d6 e2 26 3d 51 98 e6 3e 20 a5 24 3c
       -0.081105426 0.04074367 0.45038083 0.0100491345
0003e0 84 80 4a 3d 64 3b e4 bd 8e 62 8f 3e 6b c9 ed bc
       0.04943897 -0.1114414 0.2800488 -0.029026708
0003f0 b4 76 f4 bd fd 9d 74 3a b2 09 21 3e 03 82 f8 3c
       -0.11936703 0.00093314034 0.15726355 0.030335432

lstm.weight_hh_l0 f4 [256, 64]
000000 b3 e4 01 3e 22 4a a9 bc 71 2f 9a 3d 2a 9f c0 bd
       0.12684898 -0.020665232 0.0752858 -0.09405358
000010 62 9e b0 bd 3e f9 b9 bd 0f 96 a1 3d ac fc aa 3d
       -0.08623959 -0.09080742 0.078899495 0.083489746
000020 6e 79 ab 3c 84 f6 66 bd 4a f8 14 3d f4 43 af 3d
       0.020931926 -0.05638744 0.0363696 0.08557883
000030 1a e8 4c bd a9 04 a2 bd 2c 47 4c bd 3a 90 5a bd
       -0.050026037 -0.07911045 -0.049872562 -0.0533602
000040 91 9a e1 bd 24 7e b2 bd d9 3c 18 bd c9 8c 2a bd
       -0.11015809 -0.08715466 -0.037167404 -0.04163817
000050 b1 a4 cc 3b 8d 77 4f bd 9a 04 80 bc 2a e1 f5 3c
       0.0062452187 -0.050651122 -0.015627194 0.030014593
000060 7a 09 8f 3c cd 10 1a ba 9c 52 81 3c 71 5e 47 bd
       0.017460573 -0.00058771373 0.015786462 -0.04867405
000070 77 83 28 be ee d8 67 bd fc 14 01 bc 77 69 ac bd
       -0.164564 -0.056603365 -0.007878538 -0.08418553
000080 b2 ec 8d bd e6 4b 32 be 4d 6c a4 3d 34 f7 06 3e
       -0.06929912 -0.17411765 0.08028469 0.13180238
000090 9c 9e 5e bd 73 b9 9b 3d 6f 6c 1e 3d f0 11 57 bd
       -0.05435048 0.07603731 0.03867763 -0.05250734
0000a0 fe b2 97 3d f7 eb 29 bd 93 18 7d 3d e5 46 e3 bc
       0.07407187 -0.0414848 0.061791014 -0.027743766
0000b0 37 3c c4 3a 1c ad 0e 3e 8f a0 f2 3d ea b7 b7 bd
       0.0014971559 0.13933223 0.1184703 -0.08970626
0000c0 b0 2a f9 bd eb a2 e8 3d e7 25 ae 3d 85 35 ba bd
       -0.12166345 0.11359199 0.08503323 -0.09092239
0000d0 dc 7a 52 be af d6 95 3d b4 b1 b1 bb be 5e b9 bd
       -0.2055468 0.07316338 -0.005422795 -0.09051274
0000e0 e2 50 d9 3c 37 e2 0d 3b b1 5e 27 3e be 01 da 3c
       0.026527826 0.0021649727 0.16344716 0.026612159
0000f0 d3 3f a5 3d 41 78 14 3c 2c e9 91 bd 8b 70 d7 bd
       0.08068814 0.009061874 -0.07124552 -0.10519513
000100 80 02 f6 bc 84 8b 4c 38 0f 1b 28 bd 60 e7 1d be
       -0.030030489 4.8767324e-05 -0.04104143 -0.15420294
000110 1c aa f9 3d 8b e1 fe bc a1 1d 75 3d 35 0c de 3b
       0.12190649 -0.031113407 0.05984271 0.0067763575
000120 80 3e 22 3d e4 a9 17 3c 48 8a b4 bd 5a 1d 2d bc
       0.039610386 0.009256814 -0.088154376 -0.01056608
000130 00 ca c1 3d 2a db 80 3d 37 a3 99 3c ff 07 4e 3d
       0.094623566 0.06291802 0.018754585 0.050300594
000140 7e 26 7c bc 1a ad f8 bd 6e 4d 27 3d f3 5c 90 3d
       -0.015390037 -0.121423915 0.040845327 0.07048979
000150 8a 5e 90 bc 9f 1a 9c 3d 19 d7 70 be db 0c db bd
       -0.017623205 0.07622265 -0.23519553 -0.10695811
000160 d7 d7 34 3e 83 6a f4 3a 26 dc 0d 3d 1a 40 23 3b
       0.17660461 0.0018647466 0.034633778 0.0024910034
000170 25 68 68 be 15 6a 84 3d ac 4b 06 be 18 39 40 be
       -0.22695978 0.06465546 -0.13114804 -0.1877178
000180 9a e7 28 be 2a 2b 9e bd 66 c1 54 bd df 3f db 3d
       -0.16494599 -0.07723077 -0.05194225 0.10705542
000190 cb a3 fb bd c2 c3 c8 bd 03 c0 3a bd d9 3f b4 bd
       -0.122871004 -0.09802963 -0.045593273 -0.088012405
0001a0 00 ee 98 3c e9 35 ab 3d e2 c8 b3 bc d5 d1 9c 3d
       0.018668175 0.08359892 -0.021946374 0.0765721
0001b0 de ad 26 3e d2 7e 37 ba ed 85 44 3e d6 9f 9d be
       0.16277263 -0.00069997937 0.19191714 -0.30786008
0001c0 43 1d 35 bc 67 5a ec bd 13 35 ce 3c 5c 1f bd bd
       -0.01105434 -0.115406804 0.025171792 -0.09234497
0001d0 6c 8e 31 be f4 e0 4a 3b 94 c4 9e bd 62 69 db bc
       -0.17339486 0.0030956836 -0.07752338 -0.026783649
0001e0 e7 74 80 3d 07 c3 33 be 60 ee a0 3e 2c 42 cd bd
       0.06272297 -0.17554866 0.31431866 -0.10022387
0001f0 42 04 d0 bd 2f 14 37 3d 66 13 ae bd e0 ed 85 be
       -0.10157062 0.044696983 -0.08499794 -0.26158047
000200 6a 0c 0d bd 4d 11 47 bd 8f b2 30 3d 8c 93 02 be
       -0.034435667 -0.048600484 0.043139037 -0.12751597
000210 69 fc 05 3d 0a b7 60 be 5d 69 d9 bd a3 70 b3 3d
       0.03271142 -0.21944824 -0.106157996 0.08761718
000220 8f 61 e7 3d 3c 9f 00 3e 3d 22 b4 bc 61 4d 80 3d
       0.11297905 0.12560743 -0.021988982 0.06264759
000230 64 1c 11 3e 49 42 01 bd f5 1d 2e 3e d5 cc be bc
       0.14170986 -0.031557355 0.17003615 -0.02329103
000240 0b 1b a4 bd 59 b4 0f be f7 ee 4a 3d eb 74 70 3e
       -0.080129705 -0.14033641 0.0495443 0.234821
000250 c3 84 56 3d 63 85 f5 bd 51 31 06 be 19 59 69 bd
       0.052372705 -0.11988332 -0.1310475 -0.056969736
000260 c1 0d b9 3d 7d ab 2b bd a3 8f fd 3c 9e 69 c1 bd
       0.090358265 -0.04191159 0.03095228 -0.09443973
000270 7b 30 d6 3b 38 cf ed 3d 54 2f 39 3c 58 6e 5c be
       0.006536541 0.116117895 0.011302788 -0.21526468
000280 55 90 88 bd 33 1b 52 3c 9f f6 00 3e 5f 7d be 3d
       -0.06668154 0.012823868 0.12594078 0.093012564
000290 3d e2 43 be e7 cd 02 3d b7 6f f4 3d 4e 44 04 be
       -0.19129272 0.031934645 0.119353704 -0.12916681
0002a0 09 96 bb 3d 01 a6 99 3d 66 cc ff 3d 3d b4 c0 bc
       0.09159476 0.07502366 0.12490158 -0.023523444
0002b0 c1 cf dc bd d7 e0 c5 bd 1c 33 2c 3e 5b cb 1c be
       -0.107818134 -0.096620254 0.16816372 -0.15311949
0002c0 a7 7d b6 3d 32 1b e4 bc 0a 79 cc 3c 2a ae 77 bd
       0.08910685 -0.027844999 0.02496006 -0.06046883
0002d0 fd 9f 47 bd 30 89 8d bc cc b6 c5 3d ec 77 6a 3d
       -0.04873656 -0.01727733 0.09654006 0.057243273
0002e0 09 34 0b 3d 27 9b 36 be 37 02 1f 3e f5 6f 42 bd
       0.03398517 -0.17832623 0.15528189 -0.04747005
0002f0 78 1e 81 bd 3d 56 13 3b 14 69 2f 3d 2b 3d d7 bd
       -0.063046396 0.0022481822 0.04282482 -0.10509714
000300 89 a2 6e bc a9 d1 3c bd 6e 0b d9 3d 62 2a 45 be
       -0.014565119 -0.046098385 0.10597883 -0.19254449
000310 9f df fe bd 70 d5 4f bd 4e d3 3c 3d 38 2d c3 3d
       -0.12444996 -0.05074066 0.046099953 0.09530109
000320 b0 ac ac 3c 19 ce 64 bd b5 08 a1 3d d3 1f 16 be
       0.021078438 -0.055860613 0.07862989 -0.14660577
000330 42 74 33 3d 67 27 a5 bd 5a db 66 3c b3 f1 81 bd
       0.043812044 -0.08064156 0.014090383 -0.063449286
000340 37 3e 1b bd c1 9c b3 bd d2 2f dd bd b0 cf 2c 3e
       -0.03790113 -0.08770133 -0.108001366 0.16876101
000350 bf 87 76 3c b5 07 26 3d 0f 19 84 bd 97 9b 3b be
       0.015047013 0.040534694 -0.06450092 -0.18321072
000360 4f d2 56 3e 6b c8 95 bd f7 46 83 3d f5 a0 d3 3d
       0.20978664 -0.07313617 0.0641002 0.103334345
000370 65 b6 91 bd 08 6e b2 bd 05 7a 17 be f6 f1 da 3b
       -0.07114867 -0.08712393 -0.1479264 0.006681676
000380 d6 96 d4 3d 53 69 f0 bc a5 30 ec bc 8b 31 bb 3c
       0.10380332 -0.029347098 -0.02883179 0.022850772
000390 be fc 1c bc 1d c4 0b bd 08 cd 65 3d f9 f4 9e 3c
       -0.009581743 -0.034122575 0.056103736 0.019403921
0003a0 eb 92 c6 3d 77 91 c3 3d 60 5d 86 3d 21 1d 1a 3e
       0.09695991 0.095492296 0.065607786 0.15050174
0003b0 70 7f 0f 3e 06 91 a3 3d 39 97 66 bd b8 67 b6 bb
       0.14013457 0.079866454 -0.05629656 -0.0055665635
0003c0 ac db 7f 3d 6d 89 26 bd af 5b 21 be 88 2d d4 3c
       0.062465355 -0.040658403 -0.15757631 0.025900617
0003d0 ff aa a6 3d ff 6c f5 3d 10 a5 a6 3d 43 11 16 bd
       0.08138084 0.1198368 0.08136952 -0.036637556
0003e0 f8 68 bb 3d 88 60 19 be 68 15 e7 3d 14 62 df bd
       0.091508806 -0.1497823 0.1128338 -0.10907379
0003f0 3c ac b2 bd 18 88 b5 3d 12 1b a3 bb 1e e1 27 bc
       -0.08724257 0.088638484 -0.0049775923 -0.010246543

lstm.bias_ih_l0 f4 [256]
000000 0c ba f7 bd c5 9b b0 bc e5 0c ed 3c 52 0d a7 bd
       -0.120960325 -0.021558652 0.028936813 -0.081568375
000010 46 a8 e2 3d 10 fc 5d bd e9 b2 60 bd 1b 9b 2e bd
       0.11067252 -0.054195464 -0.054858122 -0.04262839
000020 48 aa d0 bd 3a 9c 21 bd 3b 34 25 3d 6d 33 0e be
       -0.101887286 -0.03945563 0.040333014 -0.13886805
000030 99 63 bd bd 4c 2c 1b bd 09 53 36 3d 51 d9 9d 3d
       -0.09247512 -0.03788404 0.044512782 0.077074654
000040 79 9e 06 be 56 9e 87 bd f8 f2 1e be 48 32 5d 3e
       -0.1314639 -0.06621997 -0.15522373 0.21601212
000050 ed 9d 90 3d 7a 5b 3e 3b ec 1e 17 bd 27 93 d3 3d
       0.07061372 0.0029046223 -0.036894724 0.103308015
000060 ac ae c5 bc af 6e 0a 3e 50 dc 27 bd 4c ec 0d 3c
       -0.024131142 0.13518785 -0.04098159 0.008662295
000070 46 23 8f 3e 9b ca 80 3d 76 d8 f7 bd 25 f2 4c 3d
       0.279566 0.06288644 -0.121018335 0.050035615
000080 80 81 cf bd f8 ee 2c bc 7f 3d 33 bd 5e b7 10 3e
       -0.10132122 -0.010555021 -0.04375982 0.14132449
000090 d7 98 b4 bd 40 d1 ed 3d 1c 8f a7 ba 9d 42 05 3e
       -0.088182144 0.11612177 -0.0012783739 0.13013692
0000a0 35 2f 4d bd 3d bc ee 3d b3 e9 00 be 63 7b 60 3e
       -0.05009385 0.11656997 -0.12589149 0.21922068
0000b0 e6 82 51 3d 50 29 8b 3d 28 94 c2 bd aa b7 cc bd
       0.051150225 0.06794989 -0.09500915 -0.09995969
0000c0 c9 41 e2 bd 86 af 53 3d fe bf ef 3d 1c 40 65 3e
       -0.11047704 0.051681064 0.117065415 0.22387737
0000d0 af 71 00 3e 70 bc d5 3c 51 81 aa 3b 5e e3 f1 bb
       0.12543367 0.02609083 0.005203404 -0.0073818406
0000e0 eb ef 96 3d 23 03 8e 3d 75 82 1d 3e 35 74 7e bd
       0.073699795 0.06934192 0.15381797 -0.062122542
0000f0 54 fc 1d be 00 68 93 bb 4d aa 28 bd 18 0f b9 bc
       -0.15428287 -0.0044984818 -0.041178036 -0.022590205
000100 a1 36 3e 3c d5 03 d5 bb 62 dc 8b 3d bf 8e ab bd
       0.011609704 -0.006500701 0.06829144 -0.08376836
000110 31 10 20 3d 00 91 4f bd 4d 17 db bc 6d b8 e3 3c
       0.03907794 -0.050675392 -0.02674451 0.027797902
000120 9d e4 02 3e e2 01 d5 3d ee 1f 91 bd fe a9 82 bc
       0.12782522 0.1040075 -0.07086168 -0.0159502
000130 c3 3e b0 bc ee 59 f8 bd 2e 79 21 bd ff 05 a6 bd
       -0.021514302 -0.12126528 -0.039422207 -0.081066124
000140 26 ee 3e be ce fa d9 3b a0 ad ce bd 6c b8 41 3e
       -0.18645534 0.0066522127 -0.1009171 0.18918008
000150 89 98 67 bd db 24 b7 bd ae a4 a9 bd ca 00 f2 3d
       -0.056541953 -0.089425765 -0.08283363 0.11816557
000160 32 b2 7e 3d 57 3f 12 bd 25 66 3a bd 20 2a af bd
       0.06218166 -0.035704937 -0.04550757 -0.085529566
000170 cb a9 11 3e 28 77 2d bd ab 99 f2 bd 6e e0 96 3d
       0.14224927 -0.042349964 -0.11845716 0.07367025
000180 08 4f 54 bd ee 38 1d 3e 81 ba 32 bc 6b 8d 68 3d
       -0.051833183 0.15353748 -0.010908724 0.05677549
000190 08 ee 10 bc da 23 ce 3d 66 44 24 3e d0 77 a7 3d
       -0.008845814 0.10065432 0.16041717 0.08177149
0001a0 04 04 ca 3d d2 b9 fa 3d 27 81 e4 3c 27 0b cb 3d
       0.09864047 0.12242474 0.027893616 0.099142365
0001b0 72 a2 cb bd c6 f4 49 bd 21 cc be 3b e5 32 da bc
       -0.09943093 -0.0493057 0.005822674 -0.026635597
0001c0 bd b3 d3 3d da b3 fa 3d 8a 04 57 bc fc 8d 21 3e
       0.10337017 0.12241335 -0.013123641 0.15776819
0001d0 c8 db 9c 3d d5 c6 c1 3c b7 b9 ed 3d d5 51 7a 3d
       0.076591074 0.02365438 0.11607688 0.061113197
0001e0 8e 7b e8 3d 06 a4 da bd 95 95 f5 3c 5f 81 1c be
       0.11351691 -0.10675816 0.029978553 -0.15283726
0001f0 7b 6b b0 bd 4d 42 5e 3d 51 88 96 3c c0 53 15 3c
       -0.0861425 0.054262448 0.018375548 0.009114206
000200 84 19 5f bc c0 1c 2e bd c8 e3 c8 3c c9 af ae 3d
       -0.013616923 -0.042507887 0.024522677 0.08529622
000210 8d 17 98 3b 00 d1 f6 bd 37 f4 ee 3c 71 6a 0b be
       0.0046414793 -0.12051582 0.029169185 -0.13614823
000220 d8 b1 d2 3d e4 34 3c 3c 35 b7 14 bc 29 f7 c8 bc
       0.10287827 0.0114872195 -0.009076883 -0.024531918
000230 b7 8f f2 bb 50 c3 04 be af a6 2b 3b 81 22 d5 bd
       -0.007402386 -0.12965131 0.002619188 -0.10406972
000240 f0 38 11 bd 2a fa 85 bd f7 83 d4 bd a6 71 0d 3e
       -0.03545469 -0.06541856 -0.10376733 0.13812885
000250 cf 1e 44 bd 0e 57 8f bd 2c 5a e2 bc 75 85 07 bc
       -0.047880944 -0.06999026 -0.027630888 -0.008271565
000260 3e f7 d6 3d 92 8c 32 bc 8d ce 62 bd e1 f1 8b bc
       0.104963765 -0.010897772 -0.055372763 -0.01708311
000270 30 13 27 3d ce 53 93 bd 5d 76 80 bd 20 5f ba bd
       0.040789783 -0.07193719 -0.06272576 -0.09100175
000280 23 c3 d3 bd 53 28 bd 3d d3 b6 de bc 89 a9 93 3a
       -0.10339954 0.09236207 -0.027186787 0.0011265735
000290 d3 d0 8b bc 40 98 4c bd 8b 3f d8 3c eb 0f ef bc
       -0.017067349 -0.049949884 0.026397487 -0.029182395
0002a0 89 44 f1 ba 22 9a 6c bc cb 59 d1 3b 16 65 9f 3d
       -0.0018407266 -0.014441045 0.006388878 0.077829525
0002b0 d8 f8 2f 3d c7 19 4d bd 73 b0 aa 3d 77 bc ed 39
       0.042961925 -0.05007341 0.08334436 0.0004534458
0002c0 2b e4 30 bd 35 40 47 bd 5b b4 9e bc 69 4e aa 3d
       -0.043186348 -0.048645217 -0.01937311 0.08315737
0002d0 c5 0a 5e bd 8a 87 d4 bd f0 2f 56 3d a0 0f f6 bb
       -0.05420949 -0.103774145 0.05229181 -0.007509187
0002e0 00 8e b8 bb 65 65 79 bd 3e 8b 3b bd d3 65 30 3c
       -0.005632162 -0.060887713 -0.04578709 0.010766464
0002f0 1c 04 41 bd ad c4 d0 3d ad 6c 94 bd 25 cc 0a bd
       -0.04712306 0.10193763 -0.07247291 -0.033886094
000300 b8 a4 35 3d be c8 1c bd 07 c8 80 3d 08 b2 92 bc
       0.04434654 -0.03827738 0.06288152 -0.017907158
000310 6b 99 61 bd 39 26 a1 bd 86 a6 93 be f5 0a 9d bd
       -0.05507795 -0.078686185 -0.28837985 -0.076681055
000320 aa c8 aa bd 33 f7 4b be 57 0b d1 bc 15 90 a6 38
       -0.08339055 -0.19918518 -0.025518103 7.942334e-05
000330 a5 47 6f be e1 64 f7 bc e2 c5 fc bd 4b 4f de 3d
       -0.23367174 -0.03019947 -0.12342431 0.10854968
000340 6e 75 66 3d ec 5c 0d bd 35 2e 3b bd 1c 4e 30 3d
       0.056264333 -0.034512445 -0.045698363 0.04304324
000350 ae e7 1d 3e 7f c2 31 3c 0e bc 03 be 28 bf 0c 3e
       0.1542041 0.010849594 -0.12864706 0.13744795
000360 50 b2 2f 3e ec fa 6a bd 76 7a f3 3d cc 85 d6 3d
       0.17157865 -0.057368204 0.11888592 0.104747385
000370 96 4f 59 3e 59 53 27 3e f9 22 ba bd 67 5a 54 bd
       0.21221766 0.16340388 -0.09088702 -0.051844027
000380 bb 6b cf bd a6 05 88 3d ec ef 9b 3d 88 0f 2e 3e
       -0.1012797 0.06641702 0.07614121 0.16998112
000390 f9 e5 59 bc bc 70 8d 3d 05 55 ea 3d da 30 05 bd
       -0.013299459 0.06906268 0.114419974 -0.03251729
0003a0 8a e1 05 bd 6c c0 cd 3d 18 a5 a1 bc d0 9d fa 3d
       -0.032685794 0.10046467 -0.019732043 0.122371316
0003b0 ef 4b 41 3d b5 f2 99 bd fb 57 78 bd c9 3a 23 be
       0.047191557 -0.07516996 -0.06063078 -0.15940394
0003c0 68 ac 66 3d 7d 0d d5 3c 7a 6d 66 3e 27 55 86 3d
       0.056316763 0.026007408 0.225027 0.0655921
0003d0 01 6b 25 3e 34 9d d2 bb c5 b5 80 bb 11 3a 8d bb
       0.161541 -0.0064274315 -0.0039279186 -0.0043099006
0003e0 0a 6a 49 3d 2a d4 2f be d9 70 e4 bb 71 6c 65 be
       0.049173392 -0.17170778 -0.0069714603 -0.22404648
0003f0 11 6b 82 bd 90 14 21 3d 9d 4e 86 bd ae 11 39 3b
       -0.063680775 0.03932625 -0.06557963 0.0028239298

lstm.bias_hh_l0 f4 [256]
000000 f7 fd 81 bd 6c f0 73 39 d7 a0 e6 3d 33 05 93 3c
       -0.06347268 0.0002326385 0.112611465 0.017946815
000010 b1 00 34 3e f1 5b 00 bd 37 75 cf bd 75 13 2d 3e
       0.17578389 -0.031337682 -0.10129779 0.16901954
000020 9b 16 0e be da f0 25 bc 90 63 f1 3c 60 2c e7 bd
       -0.13875811 -0.010128224 0.02946642 -0.11287761
000030 76 7e 87 be 36 2d 0e be 8a 2f 90 bd 01 79 9d bd
       -0.2646367 -0.13884434 -0.07040317 -0.07689095
000040 0e 8a 39 be fc 9e 0a 3c db 16 55 3d e9 40 40 3e
       -0.1811907 0.008460756 0.05202375 0.18774761
000050 32 86 01 bd da d3 7f 3d fe 63 8a bd 86 6a e0 bd
       -0.03162212 0.062457897 -0.06757353 -0.10957818
000060 91 4e 5d 3d 1b da ec 3d fa 04 c3 3c ae 33 8d 3d
       0.054030005 0.11565038 0.023806084 0.06894623
000070 f9 36 83 3e 4e 44 2b 3e c1 b8 9f bc f7 59 1e 3d
       0.25627878 0.16725275 -0.019497277 0.038660016
000080 64 a1 88 ba fb d7 50 bd b4 92 11 be d2 7b 50 3d
       -0.0010424075 -0.050987225 -0.14216119 0.050899334
000090 87 f2 75 3b 05 2d 86 bd 04 3d 7c 3c d2 17 c0 3c
       0.003752859 -0.065515555 0.015395407 0.023448858
0000a0 23 00 48 bc 1a 12 bb bd 4a df 2a bd 8e 32 50 3d
       -0.012207064 -0.09134312 -0.04171685 0.050829463
0000b0 ee 2b 2a 3b c4 96 ef bd a3 b7 72 3d 25 31 af 3d
       0.0025966126 -0.11698678 0.05925716 0.085542955
0000c0 57 d7 e5 bd a1 1f 3c 3d 0f 3a 2b 3e 82 50 01 3e
       -0.112227134 0.0459286 0.16721366 0.12628368
0000d0 4b 90 cd 3d 0e 10 7d bd 57 96 c6 3d c3 3b 83 3d
       0.10037287 -0.06178289 0.09696644 0.06407883
0000e0 d3 f0 b9 3d 9a c4 83 3c 24 36 39 3d 96 8d 2d be
       0.09079137 0.016084958 0.04521765 -0.16948542
0000f0 d6 f1 f8 3b 22 23 17 3e 60 f9 b4 bd 70 f1 88 3d
       0.0075971885 0.14759496 -0.08836627 0.066866755
000100 5a 3b 83 bc 58 30 2b bd 19 9b 8d 3d 1f 6e 60 3d
       -0.016019512 -0.04179415 0.06914348 0.05479252
000110 75 38 d7 bd df dc 6e 3d c3 17 ea bb 96 a1 8b ba
       -0.10508815 0.058316108 -0.007143946 -0.0010653015
000120 15 a0 d4 3d de 2e 5c 3b 37 dd 09 be 97 7d 5f 3c
       0.10382096 0.003359727 -0.13463293 0.013640783
000130 c2 30 60 be 6d 81 9f bd 8e 32 b6 3d 35 6d f8 bc
       -0.218936 -0.07788358 0.08896361 -0.030325511
000140 64 9c 5b be 4d 5c c5 bc 10 68 c3 3d 20 3d 37 3e
       -0.21446377 -0.024091864 0.09541333 0.17894411
000150 2a 0b a4 bd fc 8e 42 bd 6f 3c 90 3c 2a 32 ab 3d
       -0.08009942 -0.04749964 0.017606942 0.083591774
000160 f9 2b 02 3e c1 7f 09 3c af bb 85 bd 40 7b 9a 3d
       0.12712087 0.008392275 -0.065299384 0.07543039
000170 71 12 0d 3e 41 db 10 bd d0 d4 ad 3d 19 ba a7 bb
       0.13776566 -0.035365347 0.084878564 -0.00511862
000180 d8 b0 be 3c 5f 9a 91 3d 73 6f 05 bd 73 ea a2 ba
       0.023277685 0.07109522 -0.03257699 -0.001242949
000190 62 92 05 3d f3 b2 a4 bd 29 06 1b 3e ff ff 04 bd
       0.032610305 -0.08041944 0.15139069 -0.0324707
0001a0 00 a4 76 3d 8d 03 d6 3d 98 e1 cb bb 7a f9 92 3d
       0.060214996 0.10449896 -0.006221961 0.0717649
0001b0 53 34 51 3c 53 26 f9 3c 2d 1f e3 bc eb cd 92 3c
       0.012768823 0.030413782 -0.027724827 0.017920455
0001c0 26 a7 e9 3d 79 6a 9a bc 58 02 c6 3d c9 ce cb 3d
       0.11408834 -0.018849598 0.09668416 0.099515505
0001d0 be 39 40 3e 9a aa a6 bd a5 04 36 3c 02 be cb bc
       0.18772027 -0.081380084 0.011109506 -0.024870876
0001e0 f5 0f 9d 3d 9b 64 5b bd 24 56 4c 3c 81 e0 d8 bd
       0.07669059 -0.05356274 0.012471709 -0.10589696
0001f0 b9 73 24 bd 58 14 89 bd 8c c7 75 bd b0 0b e7 3d
       -0.040149424 -0.066933334 -0.060004756 0.11281526
000200 a3 e2 09 bd a7 95 a2 bc 4e b7 be bd 6a 5a 0e be
       -0.033663403 -0.01984675 -0.09312306 -0.13901678
000210 d6 fe c5 bd 98 76 c2 3c df 83 ac bc f8 d4 d9 3d
       -0.09667747 0.02373819 -0.021058975 0.10636324
000220 5e 16 e2 bd cb 25 c3 3c 74 30 e1 bc c7 b2 c1 bc
       -0.110394225 0.023821732 -0.027488925 -0.023644818
000230 8b d4 9a 3c f1 44 c2 3d 03 f8 d0 3d 09 55 50 3d
       0.018900177 0.09485806 0.102035545 0.050862346
000240 14 0e f4 bc 70 ed a1 3d c7 d1 df 3d f9 0c ce bd
       -0.02979187 0.07906616 0.10928684 -0.10061068
000250 55 4f a4 3c 17 36 c2 bc b6 ce 9f 3d af d2 ca bd
       0.02005736 -0.023707433 0.07803099 -0.09903466
000260 2c 24 c6 bd fb fb 8e bd 7c 42 22 bd 56 d8 63 3c
       -0.09674868 -0.06981655 -0.039614186 0.013906559
000270 16 38 b3 bc ea e3 9f 3d c5 a1 86 bb 25 36 37 bc
       -0.02187733 0.07807143 -0.00410864 -0.011182343
000280 47 97 54 3d 8d 1b b9 bd b1 27 2f bc d6 80 89 3d
       0.05190208 -0.09038458 -0.0106906155 0.06714027
000290 28 82 8c bc e9 e0 02 3d 03 f3 bc bd 95 ba e3 3b
       -0.017151907 0.031952772 -0.09226038 0.0069497325
0002a0 06 60 0a bd bb 36 a0 3d fc df 33 bc 18 88 6f bb
       -0.03378298 0.07822939 -0.010978695 -0.0036549624
0002b0 0c 4f 1e bb 28 af 82 3c fd 4a d6 3c 79 a3 ab 3c
       -0.0024156002 0.015952662 0.026158804 0.020951973
0002c0 de 23 90 3c 26 80 fd b9 3a f7 d5 bd ac 3b fb 3c
       0.017595228 -0.00048351398 -0.10447545 0.030668102
0002d0 37 fc 27 3d 7d 6d 30 3d d5 7e 9d bd f8 75 1d bd
       0.041012015 0.043073166 -0.07690207 -0.038442582
0002e0 f1 6e 24 bb e7 70 1f 3d 35 f4 d2 3d 6f 82 21 3c
       -0.002509054 0.03892603 0.10300485 0.009857758
0002f0 a9 1b e5 bc bf a7 4e bd 4b 79 c2 3d 0b 69 54 3d
       -0.027967291 -0.050452944 0.09495791 0.05185799
000300 5f ab 06 be 55 e4 40 bb 08 01 dc ba 79 3c b6 3d
       -0.1315131 -0.0029432971 -0.0016784975 0.08898253
000310 30 3d 1e 3e 94 74 6b 3c c4 5e 99 bd 3b 63 63 bd
       0.15453029 0.014371056 -0.07488778 -0.055514555
000320 42 6b 86 bd e7 23 e2 bd 5c fc 7b bc 22 8e 74 bd
       -0.065634266 -0.11042004 -0.015379991 -0.05970586
000330 9e 9d 9c bd 36 68 c9 bd 98 b2 a4 bd 56 5f d1 bc
       -0.076472506 -0.0983433 -0.080418766 -0.025558155
000340 a3 da 3f bd ce 8a a2 3d 54 87 52 3d 72 20 8b 3e
       -0.046839368 0.07936631 0.05139859 0.2717319
000350 7c bd 24 bd c2 88 0d 3e df 4a 65 3d 80 41 0a 3d
       -0.04021977 0.138217 0.055979606 0.033753872
000360 29 28 2e bd 80 0f 6e bd 52 eb 6c 3d 9a 76 28 bc
       -0.04251877 -0.05812025 0.057841606 -0.010282183
000370 e4 97 8f 3e f8 fe f3 3d d3 2c 5f 3d 6b 57 9c bd
       0.2804557 0.11913866 0.054486107 -0.07633861
000380 97 16 28 3c d8 34 19 bd af 17 99 3d 64 4d 06 3e
       0.010259292 -0.03740391 0.074752204 0.1311546
000390 39 08 af bc 38 12 2b bc 1a 73 3a 3e b1 2a 0b 3e
       -0.021366226 -0.010441355 0.1820797 0.13590504
0003a0 4e 9d 01 3e c6 58 ff 3d 0d 83 80 3d 92 53 23 3e
       0.12657663 0.12468104 0.06274996 0.15949848
0003b0 7e 90 d7 ba 58 e6 87 bd 27 ec f0 bd 02 a1 00 be
       -0.001644626 -0.066357315 -0.117637925 -0.1256142
0003c0 45 c5 54 3c 5b 60 8a 3d 42 d2 3d 3e 9f d8 4d 3e
       0.012986486 0.067566596 0.18537238 0.20102166
0003d0 fb 86 62 3e 2e 98 d1 3d ce a8 f4 3d c6 4c 89 bd
       0.22121803 0.10234104 0.119462594 -0.067040965
0003e0 0b 06 ed 3d 9e 74 02 be 20 6a 3f 3e 72 46 91 be
       0.11573418 -0.12739798 0.18692827 -0.28374058
0003f0 af 87 16 be 30 a8 1f 3d 6d 52 01 3e 45 77 1b bd
       -0.14700197 0.038978755 0.12629099 -0.03795554

lstm.weight_ih_l1 f4 [256, 64]
000000 b2 3c 27 3e 48 16 c3 3d 16 75 0e 3d 0f 4e 4c be
       0.16331747 0.09525734 0.03477963 -0.19951652
000010 15 00 58 be ff 32 96 bd 78 52 3e 3d c5 93 3e be
       -0.21093781 -0.073339455 0.046465367 -0.18611057
000020 05 46 de bd 98 8f a9 bd 97 39 66 bd a4 b0 1e 3e
       -0.10853199 -0.082793415 -0.056207266 0.1549707
000030 74 5d d1 3d 5b db fe bd 69 69 e5 bd 78 fa 55 bc
       0.10222903 -0.124441825 -0.11201746 -0.013060205
000040 27 d1 19 3c 60 10 a8 bd 6d e4 24 3e 72 5b 2e bd
       0.009388245 -0.08206248 0.16102763 -0.042567678
000050 aa 38 26 be 44 ab 5b bd 90 6d 2e bd c1 0c bb 3c
       -0.16232553 -0.05363013 -0.042584956 0.02283323
000060 1e 6b 07 3e d7 86 2e be e6 78 4c be 98 f4 3b 3d
       0.13224456 -0.17043625 -0.19967994 0.04588756
000070 3e 7e 02 3e 94 e7 49 3e 01 a3 ad 3d b3 e6 dc bc
       0.1274347 0.19717246 0.08478356 -0.026965475
000080 3e d8 c9 3c ef 2c cc bd 23 63 81 bc c9 6a 75 bd
       0.024639245 -0.09969508 -0.015794342 -0.05991629
000090 86 6e ae bd b4 ba 1f be 4a c8 af bd b9 df c3 bd
       -0.085171744 -0.15598565 -0.08583124 -0.09564156
0000a0 a4 8c 9d be 94 74 a8 bd 6c 87 31 bd 8c 5c 06 3e
       -0.30771363 -0.082253605 -0.04334204 0.13121241
0000b0 8e 83 07 3d 42 1b 2f 3e b5 1a da 3d ec 6b aa 3d
       0.033084445 0.17100242 0.10649625 0.08321366
0000c0 91 08 cc bd d9 74 fb bc ae f0 a6 3c 9b b0 27 3e
       -0.099625714 -0.030695366 0.020378437 0.16375963
0000d0 ce 6a a1 bc aa ce 3b be 33 47 22 be a0 54 2b be
       -0.019704249 -0.18340555 -0.15847473 -0.167315
0000e0 7c 61 b8 bd 03 0b 0d 3e f0 c9 4f bd 77 cd 34 3e
       -0.09002969 0.13773732 -0.050729692 0.17656504
0000f0 4e bb d6 3d b9 66 15 be 09 74 eb 3c 33 a0 5a 3d
       0.10484944 -0.14589967 0.028741853 0.053375434
000100 f7 df 02 3e 29 9e af bd c8 da a4 bd a9 12 1c 3e
       0.12780748 -0.085750885 -0.08049542 0.15241493
000110 b0 09 01 be f4 6f fe 3c 5f fa be 3d d6 ce 60 bd
       -0.12601352 0.031059243 0.09325098 -0.054884754
000120 0d 63 22 be 69 06 e8 bd 84 65 92 bd 28 b7 d6 bc
       -0.15858097 -0.11329348 -0.07148269 -0.026210383
000130 69 56 e7 3b ea 9c 32 3d c1 e2 85 bc 36 d4 68 bb
       0.0070598614 0.043606676 -0.016343476 -0.0035526878
000140 3d 7d e5 3d d9 a5 f1 bc 25 a2 26 be 06 e1 68 be
       0.11205528 -0.029498028 -0.1627279 -0.2274209
000150 a6 47 6e 3e d6 ee d4 bd 54 50 ad 3e 42 45 49 be
       0.23269519 -0.10397117 0.33850348 -0.19655326
000160 92 ce 93 be 8a 8a 4f bd 02 a4 85 3d e5 46 03 be
       -0.28868538 -0.05066923 0.06525423 -0.12820013
000170 75 9a f7 3d aa e9 4b bd 71 14 67 bd b9 23 5c bb
       0.12090007 -0.049783386 -0.05641598 -0.0033590628
000180 f6 94 19 be f8 c4 7f 3d 8d b8 3d be e0 c8 c7 bd
       -0.1499823 0.062443703 -0.18527432 -0.09755111
000190 96 ce 89 bd a2 23 70 3c 9b 62 67 3b b2 c3 87 bd
       -0.06728856 0.014656933 0.0035306576 -0.06629123
0001a0 f3 5c 0b bd 86 49 90 bc 79 c0 60 3c ba d0 01 be
       -0.03402419 -0.017613184 0.013717764 -0.12677279
0001b0 ae aa b7 3c 21 57 51 bd 48 fb bc 3d 48 7f 18 3e
       0.022420254 -0.051108483 0.092276156 0.14892304
0001c0 c0 f5 62 bd 36 c2 58 bd ad 2c 25 3c 60 d4 8a 3e
       -0.055410147 -0.05291959 0.010081452 0.27115154
0001d0 c0 4c 03 3e a8 fe 1a bd aa bd 50 3e d1 bd 28 3e
       0.12822247 -0.037840515 0.20384851 0.16478659
0001e0 63 dd 33 bd 1e 75 a0 3e 6b bd b8 be 6d 34 83 bd
       -0.043912303 0.31339353 -0.36082014 -0.06406484
0001f0 46 23 2e bd 60 d9 0c bd 1a a1 e0 bd 98 99 15 3e
       -0.042514108 -0.034386992 -0.10968228 0.14609373
000200 24 fd dd be 5a cf d2 be 63 45 59 3e 21 bb 65 bd
       -0.43357193 -0.41173822 0.21217875 -0.056086663
000210 56 35 fa bd ed 2b 44 be 45 f4 64 3e 24 28 0f 3e
       -0.12217204 -0.19157381 0.22358806 0.13980156
000220 54 a7 7f be b4 e9 2e 3e 3a 7c c4 3e 55 87 50 bd
       -0.24966174 0.17081338 0.38376027 -0.050910313
000230 fb c7 8a 3e ee 04 95 be cf 2e 6f 3e fa 10 a1 bd
       0.27105698 -0.29105324 0.233577 -0.07864566
000240 d1 5d 80 be bc 8a 81 be d0 00 e7 3e b6 f6 f1 3d
       -0.25071576 -0.25301158 0.45117807 0.118146345
000250 93 d7 53 be c4 07 c6 bd 04 68 d5 be 3a e7 bb be
       -0.20687704 -0.0966945 -0.4168092 -0.3669985
000260 cf 1c fa 3d 68 3d 95 bd 07 e0 06 be 0a 3b 74 3e
       0.12212526 -0.07287103 -0.13171397 0.23850647
000270 23 16 1b bf 75 06 6c bd 69 aa 46 be 50 d1 e0 bb
       -0.6058065 -0.057623345 -0.19400944 -0.0068608895
000280 40 36 15 be 59 14 ac be 72 74 24 3d f8 ac 97 3e
       -0.14571476 -0.33609274 0.040150113 0.29624152
000290 d7 77 b6 be f9 bf 68 3d ff d3 01 3d 4d b4 0a 3f
       -0.35638306 0.056823704 0.031696316 0.5418137
0002a0 f7 b3 24 3c 65 a9 23 3e 45 e4 ba 3e d0 f8 a4 3e
       0.010052673 0.15982588 0.3650228 0.3222108
0002b0 70 cf 7f be 3a ea 48 be 7c 66 7f 3e ff 13 1d bf
       -0.24981475 -0.196206 0.24941438 -0.61358637
0002c0 84 3d ae 3c b2 42 3a bc d7 93 fa 3d e2 0c 11 bd
       0.021269567 -0.01136844 0.122352295 -0.035412677
0002d0 f6 cd 21 bf e5 44 3b 3d a2 d6 4e 3e 3d 42 7a be
       -0.63204896 0.04572 0.20199063 -0.2443933
0002e0 f1 0e f4 3d 51 16 e6 be ab f8 9d 3e 80 e7 bd bd
       0.11916912 -0.449389 0.3085378 -0.09272671
0002f0 03 3f 08 bf 25 93 10 3f 63 00 ec bd 86 41 08 bf
       -0.5322115 0.56474525 -0.11523511 -0.5322498
000300 5b dd 0e 3e 06 78 a0 3e bc 40 c6 be 7e 31 2a 3e
       0.13951628 0.3134157 -0.38721263 0.16620442
000310 88 7f ce 3c c0 2e b4 3d dc 5d 65 bd 46 6c f1 be
       0.025207296 0.08797979 -0.055997714 -0.4715292
000320 49 6b 33 3e 23 57 3a bd 7d 0c 06 bf ec fd 62 be
       0.17521395 -0.045493256 -0.52362806 -0.22167176
000330 d5 c2 84 bc 36 d2 70 3e 90 a9 f5 bd a0 35 88 3e
       -0.016206184 0.23517689 -0.11995232 0.26603413
000340 ca 0f 09 3e 89 dc 0f 3e 98 1b 3b be 1b 65 21 bd
       0.1338493 0.14048971 -0.18272245 -0.039403062
000350 c3 5f 2a 3e ee 73 59 3e 53 70 7d 3e aa 86 21 3d
       0.16638093 0.2123563 0.2474988 0.039435066
000360 a2 a1 1b be d7 8a 41 3e 2a 70 e8 bd 75 0b bd be
       -0.15198377 0.1890062 -0.113495186 -0.36922804
000370 f7 45 ad 3e fa 50 96 be f8 07 26 3e bd 44 33 3e
       0.3384244 -0.29358655 0.16213977 0.1750669
000380 c0 28 8c be 60 10 5a 3e 6c cf 1d bf 2e 77 8b be
       -0.2737484 0.21295309 -0.61644626 -0.27239364
000390 4a 94 3c 3e c2 04 03 3e 2c cb 8c bc 63 3d ed bd
       0.18415943 0.12794784 -0.017186724 -0.11583974
0003a0 e7 78 81 3e f2 ca 3b 3e 2d e5 3b be 62 1a 57 bd
       0.25287554 0.18339136 -0.18349142 -0.052515395
0003b0 c7 8f cf 3d 3e 01 20 be 18 31 96 3d 02 90 8b 3e
       0.10134845 -0.15625474 0.07333583 0.27258307
0003c0 3f 2e a7 3d e1 72 1b be 9c 6a bd be be 3f aa 3e
       0.081631176 -0.15180542 -0.369954 0.33251756
0003d0 2e ee e4 3e 4e bf b5 3b 2c ed 30 3d 80 51 eb 3d
       0.44712967 0.005546487 0.043194935 0.11490154
0003e0 b6 7c 24 3d 73 d0 b8 3e 40 77 3e bd b2 83 ad bd
       0.040157996 0.36096534 -0.046500444 -0.084723845
0003f0 35 8c 8a 3e 8f f6 45 bd 11 6d fa 3d d5 d8 a5 3e
       0.27060094 -0.04833084 0.12227834 0.32391992

lstm.weight_hh_l1 f4 [256, 64]
000000 79 dc 4d bd 73 51 c4 bc a0 c9 c0 3d 9d 42 aa 3d
       -0.050259087 -0.02396462 0.09413457 0.08313487
000010 f9 78 1a be b2 b0 8f 3d 00 f0 58 3c 5c b7 12 bd
       -0.1508521 0.07016124 0.013240814 -0.035819396
000020 eb 9b 82 be 11 4a 78 3a 8a 64 da 3c 66 d6 b0 3e
       -0.2550958 0.0009471486 0.026659269 0.34538573
000030 fa c3 08 3b 20 3e f8 3d a2 f4 f3 bc 30 46 1d be
       0.0020868764 0.121212244 -0.029779736 -0.15358806
000040 e2 f6 08 be a6 19 50 3b ef 4f b8 be d6 8b 36 bc
       -0.13375428 0.003175357 -0.35998484 -0.011141738
000050 67 7f 43 be 4c 7b 00 3e dc 09 35 3e 83 b6 d9 3d
       -0.19091569 0.12547034 0.17679542 0.106305145
000060 f4 64 f0 bd 4e 08 b4 3e 84 bd 1d be 1f 30 92 3e
       -0.11738005 0.35162586 -0.15404326 0.28552338
000070 cd 2d 58 3d 48 55 3a 3d 23 55 98 bc 71 f9 1c 3e
       0.052778054 0.045491487 -0.018595284 0.1532953
000080 72 7e 0e bd e5 ac bf 3d d4 59 8b 3a 3b 2e 00 3e
       -0.034788556 0.09359149 0.0010631629 0.12517636
000090 74 9e c5 bd bf 9a 89 3d 31 40 2f 3c 50 3d 49 be
       -0.09649363 0.067189686 0.010696457 -0.19652295
0000a0 84 8a d7 bd d2 70 07 3e 2c 0c 1c be 0c 0b 02 3c
       -0.10524467 0.13226631 -0.15239018 0.007937204
0000b0 78 2b 45 3c b2 bb 59 3d 28 87 ef bc 8e 6b 8a ba
       0.01203429 0.053157516 -0.029239252 -0.0010560618
0000c0 60 33 41 be e3 df 89 3d a9 54 05 3d 33 47 4e 3c
       -0.18867254 0.06732156 0.03255144 0.012590217
0000d0 c2 ed c7 3d 93 83 6b bd 76 a1 93 3d c6 0b a0 bb
       0.097621456 -0.057498526 0.072085306 -0.004884216
0000e0 42 14 f6 3c 28 51 4d bd bc 82 30 3e 55 d5 a3 bd
       0.030038957 -0.050126225 0.17237371 -0.07999674
0000f0 b5 55 5f bd 99 64 29 bd 65 58 08 3c ac 84 8a 3e
       -0.054525096 -0.041355703 0.008321856 0.27054346
000100 b0 e1 2a be 96 9b 3d be 82 86 10 bd 5c 25 28 bc
       -0.16687655 -0.18516383 -0.035284527 -0.010262813
000110 8d e6 dd 3c c0 b4 9b bd f8 77 8b bd aa cb af bc
       0.027087474 -0.07602835 -0.068099916 -0.02145942
000120 1b 16 40 bd 24 1f 2c bd a4 a4 85 3d 6c 89 5d bc
       -0.04689608 -0.042021886 0.06525543 -0.013521533
000130 29 d5 0e be c8 0a c1 3b dd f0 cf 3d b1 ce dd 3d
       -0.13948502 0.005891178 0.10153363 0.10830439
000140 74 50 0f 3e b5 06 70 bd 39 4b 7a 3d 51 57 1e 3e
       0.13995534 -0.058600146 0.061106894 0.15462996
000150 7a 01 27 3d 2b de 84 bd 0d bc 7d 3b dc 71 9c bd
       0.040772893 -0.06487688 0.0038716823 -0.076389045
000160 5d dc 20 3b c1 73 3c bd 3d 22 fc bc 37 84 93 bd
       0.002454541 -0.04600883 -0.030778045 -0.07202952
000170 6a 50 d5 3d 0e ae 90 bd 1e be 4c bd 70 16 68 3c
       0.104157284 -0.07064448 -0.049985997 0.014165506
000180 b0 d1 99 bd 97 23 13 3d 39 a8 ee bd be 6a 12 bd
       -0.07510698 0.035922613 -0.1165318 -0.03574633
000190 5e 72 d2 3c 9d 39 c5 bc d2 00 f8 3c e8 ad 77 3d
       0.0256893 -0.024075324 0.030273829 0.060468584
0001a0 c1 a9 bf bd 3a 7f 29 3c 96 62 3b bc 64 3e 06 3e
       -0.0935855 0.010345275 -0.011437079 0.13109738
0001b0 75 82 0f be d7 6b ba bd 03 80 a7 bd 56 eb 96 3d
       -0.14014609 -0.091026 -0.08178713 0.073691055
0001c0 0c ff 1b 3d b1 4d 4e bd 1b ec ce 3d ae 95 1b be
       0.03808503 -0.05036706 0.10103627 -0.15193817
0001d0 17 1e 6d bd 26 45 37 bc b9 67 17 3d 4d d0 9f bc
       -0.057890024 -0.01118592 0.036964152 -0.019508505
0001e0 17 8c 02 bd d5 0e 7c bd 0b 69 06 3d 4f 6e e5 bd
       -0.03187188 -0.061537582 0.03281502 -0.1120268
0001f0 24 50 6b bd ba c2 b4 bd fc 46 01 3e c6 9b fb 3c
       -0.057449475 -0.08826204 0.12624735 0.030713927
000200 04 38 61 be 57 be f3 bd 0c 85 2c 3e 90 e3 5f 3d
       -0.21994025 -0.11901539 0.16847628 0.05466038
000210 e5 b8 05 be b7 ea 30 3e 18 be 1f be 58 20 b2 bb
       -0.13058813 0.17277037 -0.15599859 -0.0054359846
000220 1f 99 94 bc 93 fd 7c 3d d8 08 3d 3e cd 4b 41 bc
       -0.01813942 0.061765265 0.18460405 -0.0117978575
000230 3e 0e 34 be 7e 27 56 3d a3 79 2e 3e 02 c5 cd 3d
       -0.17583558 0.052283756 0.17038588 0.10047342
000240 f2 49 0e 3e 1a 23 59 bd 7a f1 b8 bc 07 d2 7d 3e
       0.13895395 -0.05301199 -0.022576082 0.2478715
000250 d5 6a 9b 3c 90 60 06 3e a8 a6 1c 3d d7 08 dd bd
       0.01897184 0.13122773 0.038244873 -0.10792702
000260 ff 52 45 be d3 54 04 3e ef 52 f0 3d 49 fe 59 3c
       -0.19269942 0.12922983 0.11734568 0.013305255
000270 c9 84 d0 bd 01 bd be 3c f3 d6 09 3e a1 d5 4a be
       -0.10181577 0.023283483 0.13460903 -0.19808055
000280 30 79 89 3b a3 45 6e 3d 20 5b 7e be 55 58 19 3e
       0.004195355 0.05817188 -0.24839449 0.14975102
000290 ae 67 03 3e ef 0d 01 3d 85 c8 2c 3e 54 a4 7f 3d
       0.1283252 0.03150743 0.16873367 0.062412575
0002a0 95 98 f7 bd 28 47 1a 3d 9a 62 20 3e e3 48 ff bc
       -0.120896496 0.037665516 0.15662614 -0.031162685
0002b0 17 d6 0c 3e c0 2b ad 3d 28 f5 c7 3c aa 24 67 bd
       0.13753544 0.0845561 0.024408892 -0.05643145
0002c0 c8 83 82 3e ea 5c 4c be 38 72 9a 3d a1 19 53 3d
       0.25491166 -0.19957319 0.07541317 0.051538114
0002d0 98 1b 16 be da 50 83 bd 88 28 db bd b4 59 4e be
       -0.14658964 -0.064119056 -0.1070109 -0.20151407
0002e0 08 a3 d4 bc 2a b7 28 be 73 89 0f 3c 0c ef cc 3d
       -0.025956646 -0.16476122 0.008760798 0.10006532
0002f0 d5 4c cf bd 2b 63 3b bd 13 d1 ab 3c 65 52 03 3e
       -0.101220764 -0.04574887 0.020973718 0.128244
000300 18 83 20 3e 50 65 17 3c 3a af 94 3d c1 6a d3 3d
       0.15675008 0.009240463 0.07259984 0.10323096
000310 bb 44 9e bd 65 55 7d 3d 8a 53 0f bd d1 19 86 bd
       -0.07727953 0.061849017 -0.03499178 -0.06547893
000320 db c8 ca bd 4d 96 55 3c 7e 66 86 3d 84 d6 68 3e
       -0.099015914 0.013036323 0.065625176 0.22738081
000330 40 fb 1a 3e a8 6e 2c bd 24 71 10 3e ff c9 a8 bd
       0.15134907 -0.042097718 0.1410566 -0.08241653
000340 68 eb 52 bb 11 9c 90 bd f2 47 a1 bd 2f ae f1 3d
       -0.003218377 -0.07061017 -0.078750506 0.11800801
000350 e7 17 40 be 3e 8d 8c 3e 45 f5 e0 3d 01 ff 11 bd
       -0.18759118 0.2745151 0.109842815 -0.03564358
000360 c3 2e 6c bc af 27 03 3d b3 a2 56 be 2f 00 2a 3e
       -0.014415446 0.032020267 -0.20960502 0.16601633
000370 6c 63 05 be 75 51 a6 be 0c 46 de bd a3 c8 b5 3c
       -0.13026208 -0.32484022 -0.10853204 0.022190398
000380 51 3d 03 be bf 7d 6f 3e 7e b9 91 bc b5 fc 0c 3e
       -0.12816359 0.23387812 -0.017788645 0.13768275
000390 52 3d 2d bd 53 be 11 bc 39 99 be 3c 7a ea f9 bd
       -0.042294808 -0.0088954745 0.023266422 -0.12202926
0003a0 21 9a 87 3a 4b 40 76 3d d5 2a 8f bd 13 28 3c 3e
       0.0010345617 0.06011991 -0.069905914 0.18374662
0003b0 fc 81 2d bc 1c 38 42 3e 32 57 9f 3d 4a f3 69 be
       -0.010590073 0.18966717 0.07780303 -0.22846714
0003c0 0a 4a 9a bd 20 3f b5 bd 28 d6 f5 3c b1 50 61 3e
       -0.07533653 -0.08849931 0.030009344 0.22003438
0003d0 d1 5a fb bc b4 8d 20 be ec c4 f6 3b 43 95 27 3d
       -0.030682953 -0.15679055 0.007530799 0.04091383
0003e0 5a 7d 40 3e 98 e6 51 3e be 3d 9f bc 5e a5 69 3e
       0.18797818 0.20498121 -0.01943862 0.22816989
0003f0 5a 1c 3d 3e 6d 6d 3a 3e 67 52 e0 bd 61 2c 87 3e
       0.18467847 0.18205805 -0.10953217 0.26401046

lstm.bias_ih_l1 f4 [256]
000000 a0 a5 34 3d 61 4c e4 3d 6f 87 a3 3e 74 15 ef 3d
       0.044103265 0.111473806 0.31939265 0.11674014
000010 05 bc 3f 3e 55 68 bb bd fe 4d 8d 3d 36 2b 01 3e
       0.18724068 -0.09150759 0.068996415 0.1261414
000020 fe dc 6a 3e f5 45 1e 3e 61 56 17 bc cd 21 28 3e
       0.22935864 0.15456374 -0.009236903 0.16419144
000030 88 ce c0 bc c8 4c 5d 3c 31 36 34 3e 1f ce 51 3e
       -0.023535982 0.013507076 0.17598797 0.20488785
000040 09 7c 42 3e 5b e6 90 3c 14 64 b2 3d 63 63 0c 3e
       0.18992628 0.017687967 0.08710495 0.13709788
000050 2a c0 65 3e 01 8f 3e 3c 33 e3 f6 3d b8 6e 00 3e
       0.22436586 0.0116307745 0.120550536 0.12542236
000060 6c 12 43 be 09 5f c5 3c 9d 2a b5 3c 35 5a 66 3e
       -0.19049996 0.024093168 0.022115046 0.22495349
000070 73 6c 67 3e d9 23 57 bd 6b af 7f 3e 52 e1 75 3e
       0.22599964 -0.05252442 0.2496926 0.24011734
000080 71 32 9e 3d 13 d5 5a 3e c5 d5 b6 3d f2 35 5b bd
       0.07724465 0.21370344 0.08927492 -0.053518243
000090 c0 0b de bd 61 b5 d6 bd 23 84 8f 3e 7c 1d 58 3e
       -0.10842085 -0.10483814 0.280305 0.21104997
0000a0 e5 1a 9e bd 02 b8 f3 3c 7e e3 75 bd d4 e7 4d 3e
       -0.077199735 0.029750828 -0.060031407 0.20107967
0000b0 fd e7 80 3d 2e 89 0f 3d 7a cd 4c 3e 2e aa 0f 3e
       0.06294248 0.035042934 0.20000258 0.14029762
0000c0 82 ac 57 3e 43 84 64 3e 1b 70 8c 3d 0c 27 70 3d
       0.210619 0.22316079 0.0685732 0.058630988
0000d0 fd 6b ba bc 41 d2 a1 3d a2 a9 7c 3e 1c 4d 79 3d
       -0.022756571 0.07901431 0.24674085 0.060864553
0000e0 20 a3 c8 3d de db d1 bc 51 80 89 3e 2f da 06 3e
       0.097967386 -0.025617536 0.2685571 0.13169168
0000f0 f9 e5 0d 3d 78 f4 f2 3d db d0 c6 3c 35 47 66 bc
       0.034643147 0.11863035 0.024269512 -0.014055063
000100 78 f7 8e 3d 64 a1 57 3e da df 5c 3e 9d 6f 1c 3b
       0.06980795 0.2105766 0.21569768 0.0023870238
000110 12 14 74 3d 89 38 35 3b 71 31 d6 bd 8f 81 ab 3c
       0.059589453 0.0027652106 -0.10458649 0.020935802
000120 88 c5 c5 3d a8 4b b0 bd e3 ca 6f 3d 83 8e 85 3e
       0.09656817 -0.0860818 0.058543097 0.2608529
000130 17 7e 95 3d db c3 27 3c 31 d6 1c 3e 7d 99 2e bd
       0.0729944 0.010239567 0.15316083 -0.042626847
000140 a4 06 92 3d 05 78 c8 3d 2c 44 13 3e 22 bb 16 bd
       0.07130173 0.09788517 0.14381474 -0.036799558
000150 0c bf 13 3e 6a b2 a1 3e f5 7a 3c 3e 52 1d c7 3d
       0.14428347 0.31581432 0.1840628 0.09722389
000160 66 45 b4 3d 8f a6 d9 bd d3 a5 6c 3e 24 28 16 3e
       0.08802299 -0.10627472 0.23110132 0.1466375
000170 0d d7 d9 3d 93 59 63 3d d5 5d 95 3d 05 bc ab 3c
       0.10636721 0.055505347 0.07293288 0.020963678
000180 02 d0 d7 bd 12 fa 43 3e 32 b1 53 3d 28 3a 8f bd
       -0.10537721 0.19138363 0.05168266 -0.06993514
000190 8b 5d 58 bc cf e0 07 3d 65 24 ac 3d 52 5f 01 3d
       -0.013205896 0.03317338 0.08405379 0.031585045
0001a0 f0 2a 83 3d 0a 4f 0e bd 9f c3 9e bd e6 8c 23 bd
       0.06404674 -0.034743346 -0.077521555 -0.039929293
0001b0 d2 c9 2d 3c 79 79 f6 3c 09 35 cb 3d 2c 6d 47 bd
       0.0106072 0.03008722 0.09922225 -0.0486881
0001c0 c4 6f 83 3e 7b 01 61 bb a4 38 95 bd 3f bc 98 bc
       0.25671208 -0.0034333158 -0.07286194 -0.01864445
0001d0 c7 9b ea bd 2e 01 a2 3c 19 5f 0f 3b f4 cb 6e 3d
       -0.114554934 0.019775953 0.002187675 0.058299974
0001e0 2d 00 4c 3e 2c bb 0f be 08 e5 4b 3d 43 68 ec 3c
       0.19921942 -0.14036244 0.049778968 0.02885831
0001f0 a3 ed 45 3d 27 04 46 3e bd 65 98 3c a2 d9 82 3d
       0.04832233 0.19337521 0.0186032 0.063891664
000200 dd 61 3e 3e cc 5b cb bd fd 51 c6 3d a7 88 81 bc
       0.1859202 -0.09929618 0.09683607 -0.015812231
000210 c3 0c e2 3d 7f 16 b8 3d 9a d2 9c bd 61 b8 8f 3d
       0.1103759 0.08988666 -0.076573566 0.07017589
000220 0a 9c 76 bd 1f 37 9d 3d e8 02 7f 3d c8 ba f5 3d
       -0.060207404 0.07676529 0.06225863 0.11998516
000230 b1 2d 42 3d 86 6d 50 3d 08 d4 57 3d 4c c3 9d bc
       0.047406856 0.0508857 0.052692443 -0.019258164
000240 fb e5 0b 3d c3 07 7f 3d 20 16 aa 3c 0c 20 83 bc
       0.034154873 0.06226326 0.020762503 -0.016006492
000250 5d dc b9 bd cb 2d ca 3d 9d db ed 3c 49 a3 06 3d
       -0.09075234 0.098720156 0.029035384 0.032870565
000260 8e 1a 14 3e ff 0b c1 bd 6e 9f 17 3d ac c7 51 3d
       0.14463255 -0.09426116 0.03701728 0.051215813
000270 95 2c 19 3e ec 10 a9 bd aa 53 8d bd d8 db 71 3d
       0.14958413 -0.08255181 -0.06900723 0.05904755
000280 da a6 1c 3d e6 5e a8 3d 19 fb 10 3c 88 f3 ae bb
       0.03824506 0.082212254 0.008848929 -0.00533909
000290 39 0c 03 3d 4c 0c e8 bd be 1b 6f 3d 42 6c 34 bd
       0.03199408 -0.113304704 0.058376066 -0.044048555
0002a0 d1 f1 21 3d fc 24 e6 bd ee 4c e3 3d 77 a1 2a 3d
       0.039537255 -0.11237523 0.110986575 0.04165789
0002b0 77 4b 3e 3d 97 7a 82 3c 25 cb 3f bd 6c 87 a4 3c
       0.046458688 0.015927596 -0.046824593 0.020084105
0002c0 52 e7 ab bd 87 80 8b bd 09 9a da bd 2d 54 0f 3d
       -0.0839373 -0.06811624 -0.10673911 0.034992386
0002d0 65 89 e6 bb 66 29 49 3d 66 07 8f bd 37 62 bb 3a
       -0.0070354217 0.049111746 -0.06983833 0.0014296238
0002e0 53 11 df 3d d7 48 ac 3d 88 4d ae bc 67 e6 09 bd
       0.10891976 0.084123306 -0.021277204 -0.033666994
0002f0 af 7e d8 3d f9 aa ba 3c b4 c3 f5 bc ab 57 53 3d
       0.10571038 0.022786604 -0.030000545 0.05159728
000300 1c b1 f4 bc 26 81 02 3e b3 66 a0 3d d3 df a5 3d
       -0.029869609 0.12744579 0.07832088 0.08099332
000310 a7 1b 40 3e 4c 2c 20 bd c8 3f c2 3d ed 1f 9b 3d
       0.18760549 -0.039104745 0.094848216 0.07574449
000320 d0 79 45 3e 9a 54 dc 3d 40 c4 e2 bc 12 9d 64 3e
       0.19284749 0.10758324 -0.02768147 0.22325543
000330 ac d2 6a 3d cb 61 87 bb 98 36 6b 3d 99 6c 71 bd
       0.05732982 -0.004131531 0.05742511 -0.058941457
000340 c4 99 88 3e 4e 34 b8 3d fa 7a 78 3d 91 78 08 3e
       0.26679814 0.08994351 0.060664155 0.13327242
000350 42 df 54 3e a9 f2 af 3d 1c 7f 43 3e bf 16 69 3e
       0.20788291 0.085912056 0.19091457 0.22762583
000360 e8 5d 33 be e4 ee fd bd 78 db de 3d 5a 9b 38 3e
       -0.17516291 -0.123990804 0.10881704 0.18028012
000370 11 28 ba 3d e5 0a 8d 3d 77 32 15 3e 5e fb 82 3e
       0.09089673 0.068868436 0.14570032 0.25582403
000380 7f d3 e6 3c c1 ed 31 3e 50 cb 00 3e 0c b0 87 3d
       0.028177021 0.17375852 0.12577558 0.06625375
000390 98 27 d6 3b 1e 39 e7 bc a5 c4 50 3e 04 e3 99 3d
       0.0065354817 -0.028225478 0.20387514 0.07514003
0003a0 b6 dd 5e 3e 25 92 ae 3c 50 88 d9 bd c7 c0 52 3e
       0.21764264 0.021309922 -0.10621703 0.20581351
0003b0 d6 2e 04 3e 11 ad 9a bc cd 7b a7 3e b7 1f 21 bd
       0.12908491 -0.018881353 0.3271164 -0.039336886
0003c0 16 41 a9 3e 87 46 c3 3d 48 dc d8 3d 9d 89 91 bd
       0.3305747 0.095349364 0.1058889 -0.07106326
0003d0 39 55 69 3d 81 0f a8 bd 58 04 1d 3e da f3 f7 bd
       0.05696604 -0.08206082 0.15333688 -0.12107058
0003e0 8c a3 34 3d 2e a8 ab 3d 0a 33 33 3e 57 d5 38 3c
       0.044101283 0.08381687 0.17499939 0.011281333
0003f0 d0 12 3b 3e 42 99 01 3e f6 b4 3a 3c 7a 38 81 bd
       0.18268895 0.1265612 0.0113956835 -0.063096
