model_microservice/models/network_shield_ciciot.pth (torch, 57021 bytes, 5 tensors)

net.0.weight f4 [128, 39]
000000 73 a7 41 3e bb 94 19 3e ad 4a 01 3e a0 5a 32 3d
       0.18911533 0.14998142 0.12626143 0.043543458
000010 c2 a0 c5 3d d9 c7 df 3d 20 6a b5 3d e6 ac bb bd
       0.09649803 0.1092679 0.08858132 -0.09163837
000020 25 09 9a bd f9 1b 01 3e 0f 4d 90 bd dc 05 a5 3d
       -0.075212754 0.12608327 -0.07045948 0.08057758
000030 64 a2 52 3d f2 0f 60 3c f6 80 2d 3e a5 bd 71 bd
       0.0514244 0.013675677 0.16943726 -0.05901875
000040 72 fc fd 3c 4b 6f 81 3d 9f 4c 1e 3e 3c 6f 18 bd
       0.031004164 0.063200556 0.15458916 -0.037215456
000050 31 a3 9f 3d 88 11 e6 bc 3a d9 72 3d cf 6b 90 bd
       0.07794798 -0.028084531 0.059289195 -0.07051813
000060 c7 23 2d 3e 39 04 62 3e 79 b3 d7 3d 97 de 7c bc
       0.16908179 0.22071923 0.105322786 -0.015433929
000070 96 14 d8 3d 15 01 bd bc a2 85 30 3e ec 5d 02 bd
       0.105508015 -0.023071805 0.17238477 -0.031827852
000080 2e c5 aa bd 37 e7 b2 bd 9b ec 7a 3d 35 b9 40 3e
       -0.0833839 -0.08735507 0.0612608 0.18820651
000090 a3 91 9c bd b9 c9 25 3d c9 f1 15 bc 59 e3 16 3e
       -0.076449655 0.04047558 -0.009151884 0.14735164
0000a0 be 57 ff 3d 3c ed 79 bd 93 0f 58 3e c5 ea be bd
       0.12467907 -0.06101726 0.21099691 -0.093221225
0000b0 03 f5 b2 bd a9 c7 49 3e fa 23 07 3e f6 b2 b7 3d
       -0.087381385 0.1970507 0.13197318 0.08969681
0000c0 50 ea a4 3d 5e 35 87 3d af 0b 0d bd 73 46 2a 3e
       0.08052504 0.06601976 -0.03443497 0.16628437
0000d0 fd 24 3e 3e 1c 5e ce bd 5a f6 93 bd 51 33 3a 3c
       0.18568797 -0.10076544 -0.07224722 0.011364774
0000e0 d6 50 06 bb 52 f8 64 3c e7 00 82 bd 75 64 96 bd
       -0.002049496 0.01397522 -0.06347828 -0.073433794
0000f0 86 28 93 bd a3 6b 2c 3d ba 52 39 3e 81 42 bf bc
       -0.071854636 0.042094838 0.18097964 -0.023347141
000100 dc bf 2f bd 57 f1 2c 3d 4e 4b 0e be 01 c5 1d 3e
       -0.04290758 0.042222347 -0.13895914 0.15407182
000110 cb cc f9 3c 48 94 16 bd 2f 1b 54 3e 6f f9 53 3e
       0.03049316 -0.036762506 0.20713495 0.2070062
000120 a3 bd 98 bd 48 6e 3e 3c 32 37 86 3d 23 98 1d be
       -0.07458045 0.011622973 0.065534964 -0.15390067
000130 b2 1d 9c bd 28 a8 5b 3d be 18 fa 3d 16 8d 28 3d
       -0.076228514 0.053627163 0.122117504 0.041150175
000140 d8 6c 94 3d 08 86 15 3e e7 14 ae 3d ba 82 bd bb
       0.07247323 0.1460191 0.085000806 -0.005783406
000150 a6 b4 18 bd 91 02 8b 3d 6e e4 4b 3e 4b cf b2 3d
       -0.037281655 0.06787599 0.19911358 0.08730944
000160 6f ab 7a 3d fa ef ce bd 33 16 ca bd 70 76 8b 3c
       0.061198648 -0.10104366 -0.098675154 0.017024249
000170 d3 c9 39 bd bd 7d 76 3c cd 1b aa bd b2 95 ee 3c
       -0.04535849 0.015044627 -0.08306084 0.029124115
000180 43 b4 b5 bd e2 e2 7c 3d b6 03 dd bd ff 83 85 bc
       -0.08872273 0.06173981 -0.107917234 -0.016298292
000190 eb 6a 5d 3d fd f7 76 bd 76 22 c1 3d 46 c3 a7 bd
       0.054057043 -0.060295094 0.09430401 -0.08191542
0001a0 7b d9 48 3c 3f 27 92 3c 8a ca 37 3e 22 51 9e bc
       0.012258883 0.01784098 0.17948356 -0.019325797
0001b0 64 ca 77 3d ed 21 d7 bd f8 e3 c4 bd c9 89 23 3d
       0.06049575 -0.10504518 -0.09613794 0.039926324
0001c0 a9 f2 1c 3d a5 61 17 3e 1c 4d 09 3e 78 6b 12 3e
       0.038317356 0.14783342 0.13408321 0.14298809
0001d0 5a d7 13 3e b3 20 00 3e 0d 56 84 3e 57 28 75 3e
       0.14437619 0.12512474 0.25846902 0.2394117
0001e0 17 e5 52 3d e1 07 e3 3d 12 a2 be 3d a6 e8 1f bd
       0.05148801 0.11085487 0.09308256 -0.03904023
0001f0 e6 37 35 3e 3e 6e 23 3e bc 51 38 3e 1e d7 fc bd
       0.17697105 0.15960023 0.17999929 -0.12345718
000200 4c 3e d1 bd 87 53 6a 3d 2a 00 7e 3d 1e 3a a2 3d
       -0.1021696 0.057208564 0.062011875 0.07921241
000210 49 50 4c 3e a7 53 76 3d 5c ba 7c 3d 63 27 94 bd
       0.19952501 0.06013837 0.061701164 -0.07234075
000220 d2 c1 9e 3d 82 cf 1c 3e e3 89 d5 bc 4a db e4 3d
       0.07751812 0.15313533 -0.026066726 0.111746386
000230 42 b3 a0 3d f9 f6 35 3d 2e 97 aa 3e 7a 5a 1f 3e
       0.07846691 0.044424985 0.33318466 0.15561858
000240 36 d1 2c 3e 53 9b 23 3d 64 fa d1 3c 3f c5 9f 3d
       0.16876683 0.03994305 0.02563209 0.078012936
000250 e1 c6 76 3d 73 08 0b 3e d2 24 53 bd 02 11 68 3e
       0.06024826 0.13577442 -0.051548786 0.22662738
000260 c8 4c ec 3b 0a d5 fc bd e9 00 94 3e f9 26 fb ba
       0.0072113015 -0.123453215 0.28906944 -0.0019161395
000270 1c 8a 14 3c d2 65 65 3d b6 60 fa 3d b3 25 c2 3d
       0.009066131 0.056005307 0.122254774 0.09479847
000280 ff 2c 9d bd 01 9c 75 3d 8b 75 21 3e 18 b6 f5 3b
       -0.07674598 0.05996323 0.15767495 0.007498514
000290 ee 41 87 bd bd 04 83 3d f8 d4 16 bd 47 c4 77 bd
       -0.06604372 0.06397388 -0.036824197 -0.06048992
0002a0 4b b6 67 bd 2d e8 f1 3d 4b 34 1c bd 01 9e 5a bd
       -0.056570332 0.11811862 -0.038135808 -0.05337334
0002b0 66 87 52 3d fc c7 4c 3e c0 e5 05 be 9f 62 67 bd
       0.051398657 0.19998163 -0.13075924 -0.056490537
0002c0 bf 95 1c 3e ce 91 0b bd a6 0f a8 bd 79 15 d3 bd
       0.15291499 -0.034074597 -0.0820611 -0.1030683
0002d0 8e a0 f3 3d 53 d1 bf bc f7 9e 9d 3d fd 20 f8 3d
       0.11895858 -0.023415243 0.07696336 0.12115667
0002e0 f1 4b 56 3d 68 88 46 3e 54 33 fd 3b dc 6b 2f 3e
       0.052318517 0.19387972 0.007727066 0.17130989
0002f0 f8 38 c8 3d be b1 21 b9 fc 0c 28 3e cc e5 af 3d
       0.09776491 -0.0001542037 0.16411203 0.08588752
000300 d9 9f 93 bb e3 62 23 3e 30 c7 6c 3d 33 f9 3a 3d
       -0.0045051393 0.15955691 0.057807148 0.04564781
000310 b1 e1 cd 3d 0e f6 0d 3e fd 7d 9c bd 47 5c c2 bc
       0.10052813 0.13863394 -0.07641218 -0.023725642
000320 b5 6a f8 3d 2d 07 be 3d c2 f8 10 3d 41 53 c5 3d
       0.12129728 0.092787124 0.035393484 0.0963502
000330 c5 07 da bd d5 c6 2b 3d c8 f9 26 3e 1e 8f a5 bc
       -0.10646013 0.041937668 0.16306221 -0.020209845
000340 a5 2b fe 3d 5d 22 25 3e cc 12 dc 3d c6 9b cc 3d
       0.12410668 0.1612639 0.10745773 0.09990649
000350 80 fb a2 3d dd b9 6a bd 10 fb 1f 3e 67 4c a5 3d
       0.07958126 -0.05730616 0.15623116 0.08071213
000360 c9 ac f9 bd 39 11 e1 bd ff 63 bb 3d 32 b7 c7 bc
       -0.12191159 -0.10989613 0.09149932 -0.024379347
000370 6c 63 8a 3d bc 80 35 3e fd df 79 3d 15 39 80 bd
       0.067572445 0.1772489 0.061004627 -0.062608875
000380 4b f3 93 bc 22 35 cf bd cb 59 ba bc d4 0c bd bd
       -0.018060347 -0.10117556 -0.022747895 -0.092309624
000390 a7 07 37 3e 14 8a 18 3d b3 32 54 bd 8c f9 0f be
       0.17874013 0.037241057 -0.051806163 -0.14060038
0003a0 7c 55 04 3e 79 f8 ff bd 7f a3 cf bd e3 ba 4d 3e
       0.12923235 -0.12498564 -0.10138606 0.20090823
0003b0 7c 28 0d 3d 75 f0 e7 3d e2 4c b7 bd e7 53 81 3d
       0.034462437 0.113251604 -0.08950211 0.06314831
0003c0 36 a7 22 3e 00 0f 12 3e b5 8f 23 3e 62 0d f2 3a
       0.15884098 0.14263535 0.15972789 0.0018467123
0003d0 ab e9 f9 bc 8c 1c 33 3e b7 90 2f 3e a4 24 5c 3c
       -0.03050693 0.17491359 0.17145048 0.01343647
0003e0 b4 d1 f1 3d 26 58 3e 3d f4 20 ba 3d c1 b3 ed 3d
       0.11807576 0.046470784 0.090883166 0.11606551
0003f0 72 77 bb bd 66 4f 3f bd 18 86 6b bd fb 27 dd bd
       -0.09153642 -0.04670658 -0.05750093 -0.10798641

net.0.bias f4 [128]
000000 b6 8e 29 3e 0d 1e 85 3d de 5a 2a bd e4 e2 b7 3d
       0.16558346 0.06499872 -0.041590564 0.08978823
000010 52 65 f9 3a 52 a0 42 bb 71 df b6 3c 17 ed 48 3e
       0.0019027388 -0.002969761 0.022323342 0.19621693
000020 2d 0e 44 3e 89 9d 99 3d 7e f2 b9 3d cd 92 86 bc
       0.19146033 0.075007506 0.09079455 -0.016427422
000030 a5 ed 53 3e 28 f8 30 3e c1 cb 78 3d 3f da b5 bc
       0.20696123 0.17282164 0.06074119 -0.022198794
000040 80 0a 13 3e 76 4a 53 3e ab 93 2b 3e 6c a8 c2 bd
       0.14359474 0.20633873 0.1675555 -0.0950478
000050 aa 00 04 3d c6 77 83 bc 84 da 3a 3c 83 2b bd 3d
       0.032227196 -0.016048323 0.011404637 0.09236815
000060 cd c4 51 3e 42 10 9d 3c 66 f4 94 bd 45 eb 19 3e
       0.2048523 0.019172791 -0.07273178 0.15031154
000070 5f ee 01 3e 18 16 66 3d 20 0a 3a 3c d3 1f a8 bc
       0.12688588 0.056173414 0.011354953 -0.020522987
000080 52 d8 41 3e 31 eb da bd 72 55 b1 3d 6e 17 bc bc
       0.18930176 -0.106893905 0.086588755 -0.02296039
000090 26 8f c8 3d 37 ae 7f 3c 6f 06 60 bd 97 ef 8a bd
       0.097929284 0.015605501 -0.054693636 -0.067839794
0000a0 54 51 36 bb fb 7f 3b 3d 5f eb 4b 3e e0 54 e9 3c
       -0.0027819471 0.04577635 0.19914006 0.028482854
0000b0 39 63 d3 3d c8 24 d3 3d e9 df 1e 3d 13 1b 64 3c
       0.103216596 0.1030975 0.038787756 0.013922471
0000c0 d5 23 25 3e b5 86 32 3e 1c 41 82 bd cc db 6e bd
       0.1612695 0.17434199 -0.06360075 -0.058315083
0000d0 7c 0a 85 3d d7 85 e3 bc 47 f2 0d be 18 8e 3b 3e
       0.0649614 -0.02777378 -0.13861953 0.18315923
0000e0 10 7a b7 3d 04 4f 0b 3e 8f 22 ed 3d ef b3 df 3b
       0.089588284 0.13604361 0.11578857 0.0068268697
0000f0 e7 3d 2b 3e 63 8e bc 3d 7b c3 1b 3d 36 0e ac 3c
       0.16722833 0.092068456 0.03802822 0.02100287
000100 e0 9c 5d 3d 8e e5 00 be df 67 4d 3e cf 72 f1 bc
       0.054104686 -0.12587568 0.20059155 -0.02947369
000110 d3 8d d5 3d ea 12 02 3f 9c c0 0e be ae ce 24 3e
       0.104274414 0.5081011 -0.13940662 0.16094467
000120 45 e0 81 3b 71 8a 2f 3d 06 76 2f 3f df e8 c1 3d
       0.0039635026 0.042856637 0.68539464 0.09468245
000130 4f aa 00 3e db b6 8a 3d f6 ac 9e bd 18 d0 48 3e
       0.12564968 0.06773158 -0.077478334 0.19610631
000140 d3 96 51 3d 76 37 40 3e 55 2f a8 3d 8f 37 17 3e
       0.051169228 0.18771157 0.08212153 0.14767288
000150 cc 9b 17 bc ca 72 08 be 9e 85 3a 3e 04 3e da 3d
       -0.009253453 -0.13325039 0.18215033 0.1065636
000160 98 86 1f 3e b2 32 17 3d 2a 21 39 3e be f7 4e 3e
       0.15578687 0.03691358 0.18079057 0.20211694
000170 89 fc 1b 3e 92 4b be bd 16 ea b5 bd 11 9f 39 bd
       0.15233053 -0.09291758 -0.08882539 -0.045317713
000180 20 cc a6 3d c8 be fd bc 1a 0f 17 3e 09 52 5a 3e
       0.081444025 -0.03097476 0.14751855 0.21320356
000190 66 69 27 3e 94 1b a6 bd 65 98 50 3d f0 6c 0a be
       0.163488 -0.08110729 0.050926585 -0.13518119
0001a0 62 cb a4 3d c6 69 09 3e 6f fa 54 3d f3 43 be bd
       0.08046605 0.13419256 0.051996645 -0.09290304
0001b0 f7 b2 db bc 07 cb 9d 3b 2a bd 55 3e ab 05 3c 3e
       -0.026818736 0.0048154625 0.20872942 0.18361537
0001c0 f9 64 86 bd 55 44 8c bd 2f 70 ef 3d 2a a4 3a 3f
       -0.06562228 -0.06848971 0.11691319 0.72906744
0001d0 ec a5 1f be 3b 16 c8 3d b8 13 c1 3d c1 c4 0c 3e
       -0.15590638 0.09769865 0.09427589 0.1374693
0001e0 1d 9d e5 3d d5 0b 8e bd 58 e6 e6 bc 45 d0 2b 3e
       0.112116076 -0.069358505 -0.028186008 0.16778667
0001f0 a3 a1 76 3c 55 6d 06 bb 70 8d 35 3d 44 ee cc 3d
       0.015053186 -0.0020511944 0.04432434 0.10006383

net.3.weight f4 [64, 128]
000000 b8 69 8e 3d 2a 41 28 3d 5f 0c cc 3d e6 0e 89 3e
       0.06953758 0.04107777 0.09963297 0.2676918
000010 89 93 0e 3e 81 0e 72 3d 86 46 41 3d 48 1d d3 3e
       0.13923468 0.059095863 0.047186397 0.41233277
000020 77 1f 8c 3d eb ef 2c 3d eb 65 86 3d d1 97 07 3e
       0.06841939 0.04222099 0.06562408 0.13241507
000030 e1 f5 2e 3c 1e 6a 34 3b 42 e8 a2 3d fc 17 8a 3c
       0.010678739 0.002752907 0.07954456 0.01685714
000040 81 72 84 3d 2e 28 d0 3d b9 16 c2 3d 0a 77 48 bc
       0.064671524 0.10163914 0.0947699 -0.012235412
000050 63 dd df 3d c9 01 21 3d 18 84 08 3e 92 31 12 3e
       0.10930898 0.039308343 0.1333164 0.14276722
000060 a8 4b 2e bc 45 6c 82 3d 96 9c 0d 3e 8d 82 bc 3d
       -0.010638155 0.06368307 0.13829264 0.09204588
000070 2f f7 5a bc 2c 3e 2d bc 28 a7 8a 3d 93 50 c9 3d
       -0.013364597 -0.010573905 0.06770164 0.098298214
000080 2a 7e be bc 8c f8 06 3d 3d d1 1a 3d 6a f5 29 bd
       -0.02325352 0.032951877 0.0377972 -0.04149381
000090 93 22 23 bc 5e 6b 82 3d ab 0c c0 3d 92 d9 4a 3d
       -0.009956974 0.06368135 0.09377416 0.049523897
0000a0 1f 3e b3 3c bb da e6 3c 0e 28 07 3d d6 92 45 3d
       0.021880208 0.02818047 0.032997184 0.048235737
0000b0 f7 a1 2f 3d 7d 70 9b 3d c9 be af 3d 1d 41 d7 3b
       0.04287907 0.07589815 0.08581311 0.0065690414
0000c0 92 07 03 3e 05 fc a6 3c ca 1b 09 3e 32 9b 04 3e
       0.12795857 0.020383844 0.13389507 0.12949827
0000d0 99 06 0c 3e 32 e5 98 3d b8 79 02 bc 2c 9d 96 3d
       0.13674392 0.074655905 -0.00796359 0.07354197
0000e0 72 82 be 3d d2 18 c5 3d 45 c9 be 3d 7e 49 9e 3c
       0.09302224 0.09623875 0.09315733 0.019322153
0000f0 67 eb 04 3d 51 aa 19 3d 63 73 a5 3d 92 69 5b 3c
       0.03245106 0.037515942 0.08078649 0.013391869
000100 6d 95 fd 3d 95 2a 75 bd cc b6 04 3c 56 7c d2 3d
       0.12382016 -0.059855063 0.008100223 0.102776214
000110 69 8a e3 3d 46 88 04 3f 21 91 7d 3d ab 3f 5d 3d
       0.11110384 0.51770437 0.061905984 0.054015797
000120 b8 9a 15 bc 56 56 8c 3c d6 91 01 3f 4c 89 56 3d
       -0.009131126 0.017131012 0.50613153 0.05237703
000130 77 9f 34 3e 2f f7 35 bc b4 55 83 3d f4 3b 92 3d
       0.17638956 -0.011106296 0.06412831 0.071403414
000140 cb 6b 80 3d 75 f5 d0 3d ff 1b fb 3d 6b 61 de 3c
       0.0627056 0.10203067 0.12261199 0.027146062
000150 f1 21 63 3d 14 e7 05 3d 10 48 04 3e 92 c9 57 bc
       0.05545229 0.032691076 0.12918115 -0.013170617
000160 14 04 c4 3c 25 18 0d bd 4c b8 d8 3c 11 81 31 bc
       0.023927726 -0.034446854 0.026455067 -0.0108339945
000170 ab 94 b9 3d db 8d 03 3e da 12 a3 3d a8 fd 92 3d
       0.09061559 0.12847082 0.0796258 0.07177287
000180 34 66 1b 3e 91 6e d4 3d e4 66 02 3e 9e a0 07 3f
       0.15175706 0.10372651 0.12734562 0.5297946
000190 e4 95 f9 3d 31 82 cf 3d 39 0d cb 3d ea c3 17 bd
       0.121867925 0.10132254 0.099146314 -0.037052073
0001a0 a9 3c 9c bc be 52 0d bd 51 c8 b8 3d aa 6b 17 bb
       -0.019071894 -0.034502737 0.09022582 -0.0023104944
0001b0 3b de eb 3d 7a 14 aa 3d 8c ba 05 bd c3 f5 21 3d
       0.115169965 0.08304687 -0.032648608 0.039541017
0001c0 b9 90 c4 3c f5 1b cc bc a7 9f 2a 3c de 96 02 3f
       0.02399479 -0.024915675 0.010414041 0.51011455
0001d0 5f 67 78 bd ca 3a 99 3d 91 5e fc 3d 60 86 ea 3d
       -0.060645457 0.07481916 0.123227246 0.11451411
0001e0 f6 a3 22 3d f9 e7 06 3c 4b c6 cd 3d df 12 77 3c
       0.039707147 0.0082340175 0.10047587 0.015080183
0001f0 09 5a c4 3d d8 84 a2 bc 8e 32 9a 3c 56 6e f1 bc
       0.09587485 -0.019838735 0.018822934 -0.029471558
000200 98 a7 bd bd 79 52 ce bc d8 ac 4a 3d f5 b7 6b 3d
       -0.092604816 -0.02518581 0.049481243 0.057548482
000210 af 06 09 3d fd cf ab 3c 7c 98 d9 3c fe 8d bd ba
       0.03345364 0.0209732 0.026561968 -0.0014461873
000220 5a 2b 95 3b 15 66 8a bd a3 63 80 bd a6 e8 45 3a
       0.004552287 -0.06757752 -0.06269004 0.0007549621
000230 66 5d 66 bc f6 d9 bb bd 86 20 d2 bd 1d d1 98 bd
       -0.014060354 -0.09172432 -0.102601096 -0.0746176
000240 81 d7 09 bb d2 0a 68 3d 99 66 03 3d 33 74 f2 bc
       -0.0021032991 0.056650944 0.032080267 -0.029596424
000250 17 8d a8 bc 30 05 14 3d c9 25 58 3d cd 48 fe 3c
       -0.02057509 0.03613776 0.05277041 0.031040573
000260 90 7a 97 bd a8 de 34 3d 9a 8d c4 3c d7 b2 2f 3d
       -0.07396424 0.044157654 0.023993302 0.042895164
000270 97 e5 c8 bd 09 9a 30 bc 89 ab 40 bd ab 92 96 bd
       -0.09809416 -0.010778912 -0.04703859 -0.073521934
000280 1f 28 3d 3d b4 39 d4 3c c8 96 0e 3d 09 34 ba bd
       0.04618084 0.025906421 0.034811765 -0.09091956
000290 ce b4 e2 3a 89 53 84 3d d5 e6 84 3a 35 b5 73 3d
       0.0017296316 0.064612456 0.0010139594 0.059498984
0002a0 39 b7 ab 3c 65 cb dd bb cc b5 27 bd 29 8a bb bd
       0.02096139 -0.0067686313 -0.04094486 -0.09157211
0002b0 09 23 4c 3d e9 d2 46 3b 53 2c 3e 3d db 23 dd 3a
       0.0498381 0.0030338115 0.04642899 0.0016871648
0002c0 be 00 bd 3b 9f 21 ab ba 1a 5e b9 bd 00 49 29 bd
       0.0057679107 -0.0013056285 -0.090511516 -0.041329384
0002d0 50 6b 57 3d e4 e8 85 3d c0 de 72 3d 83 8c 84 3d
       0.052592576 0.06538561 0.059294462 0.06472113
0002e0 76 1d 4d bd e6 bc 78 bd 73 c1 cc bc e8 e3 52 bd
       -0.050076924 -0.060727023 -0.024994588 -0.05148688
0002f0 2c ca ae 3b b2 21 47 bd 08 dc 87 3d 77 e9 25 3c
       0.0053341594 -0.04861612 0.066337645 0.010126463
000300 48 07 98 bd e2 17 84 3d ed ea 62 3d 8c 21 ad 3c
       -0.07423264 0.06449868 0.055399824 0.02113416
000310 b6 50 14 bd ab 23 98 3d d9 5a 92 bc d4 56 32 bd
       -0.036209784 0.07428678 -0.017865585 -0.043539837
000320 80 ec 41 bd da 6b 50 3d bf 74 fd 3c 42 6e 00 ba
       -0.047344685 0.050884105 0.030939458 -0.0004899242
000330 2a 95 10 3d d3 af 8b 3d fa 26 0f bd 0e 28 c4 bd
       0.035298504 0.06820645 -0.03494928 -0.09577952
000340 f1 d2 95 bd 2c d5 40 3d 6a 37 1b bd 6e 3f ac bd
       -0.073156245 0.047078297 -0.037894644 -0.08410536
000350 28 4c 8c bd cf 6a 96 3d 5d 3e 8a 3d 72 0d bd bd
       -0.06850463 0.07344591 0.06750176 -0.0923108
000360 57 9c 48 3d 82 f9 4c 3d 21 3a 02 bd fe 14 bf 3c
       0.048977222 0.050042637 -0.031793717 0.02332544
000370 fd 1c a8 bd f6 0c 95 bd bb ab 36 bd c0 ca 9e bd
       -0.08208654 -0.07277863 -0.04459737 -0.07753515
000380 e5 79 bf bd 94 31 35 38 aa 5f a0 3c a3 5f 4c bd
       -0.093494214 4.3199936e-05 0.019576866 -0.049895894
000390 13 e4 81 3d a5 6d 46 3d 17 d0 a8 bd 60 c3 43 bd
       0.0634233 0.04844441 -0.08242815 -0.047793746
0003a0 63 7d 36 bd b6 01 a9 bc 75 cf cf bd 96 6e 60 bc
       -0.04455317 -0.020630699 -0.10146991 -0.013698241
0003b0 f3 a6 ca 3b 02 0e 54 bd 95 0a 5c bc 5a 6f 3c 3d
       0.0061844527 -0.05177117 -0.013430257 0.04600463
0003c0 f7 43 9b 3c 2d 21 a1 3c b3 58 12 bd 13 d1 d0 3a
       0.018953307 0.01966914 -0.03572912 0.001593145
0003d0 b4 ec 5b 3d 25 e2 04 bc 35 a1 94 bd 13 9d 1a bd
       0.053692535 -0.008110558 -0.0725731 -0.037747454
0003e0 43 cd 7c 3d 1a 94 8f 3d 15 6f ab bd 5d de 8b 3d
       0.06171919 0.0701067 -0.083707966 0.06829522
0003f0 16 c1 98 3c 36 b6 af bc 4b ce 04 bd d9 f0 6f 3d
       0.018646758 -0.02144919 -0.0324233 0.0585793

net.3.bias f4 [64]
000000 95 dd ba bb c1 8f 68 bd 16 ea 04 3e 68 d6 c2 3a
       -0.005702684 -0.05677772 0.12979922 0.0014864923
000010 81 db c1 bd cf cb c3 bd ae 85 89 3d f0 1f fe 3c
       -0.09465695 -0.09560358 0.067149505 0.031021088
000020 be ae 5c 3d a6 70 fb 3c ab 7d 9c 3d 56 87 23 3d
       0.053877585 0.030693363 0.07641157 0.03992399
000030 96 df 29 3d 18 f5 5f bd 57 4a 8d 3d c0 03 ec 3b
       0.041472994 -0.0546771 0.06898945 0.0072025955
000040 61 7a a8 3d 0e dc 84 3d 88 d5 61 bd 98 eb 8c 3c
       0.08226467 0.064872846 -0.05513528 0.017202184
000050 78 55 9c 3d 6d c0 7e 3d 00 c6 c3 3d d6 a0 9e 3c
       0.07633489 0.06219523 0.0955925 0.019363802
000060 34 dd a7 bd 18 f2 fe 3d 84 79 b6 bd b0 6e d2 bc
       -0.08196488 0.124485195 -0.08909896 -0.025687546
000070 78 7c fa 3d d3 4d 8f 3d 0a f6 ae 3d 5d ba e2 bc
       0.12230772 0.06997266 0.08543022 -0.027676756
000080 05 9c d1 bb 7f 02 ac 3d cc 80 fe 3d 75 96 da bc
       -0.006396773 0.083989136 0.1242691 -0.026683072
000090 e2 dc 46 3c 49 b2 4e 3e c9 a5 94 3c 51 6f b8 3b
       0.0121376235 0.20185198 0.018145459 0.0056285043
0000a0 08 a9 7a bd f3 19 0e 3d 10 1e 91 bc 67 56 0f 3d
       -0.061196357 0.034692716 -0.01771453 0.03499451
0000b0 51 b2 cc 3c 78 77 a0 3d 80 98 dc 3d de 72 2a bd
       0.024987372 0.07835287 0.107712746 -0.041613452
0000c0 a9 76 93 3d ca 5e 00 3e 9a 47 1c 3d b9 91 66 bb
       0.07200367 0.12536159 0.038154222 -0.0035182072
0000d0 fb cb b5 3c f1 bb 08 bb cc 53 d2 bc d2 bc 2f 3d
       0.022191992 -0.0020863975 -0.025674723 0.042904682
0000e0 0f af b5 bc 2d ba 5f 3d 03 51 56 bd 36 39 25 bc
       -0.022178201 0.05462091 -0.052323353 -0.010084441
0000f0 c6 af 0a bd ed 9b a1 bb 61 c8 81 bd 18 3f 92 bc
       -0.033859037 -0.004931918 -0.06337047 -0.017852351

net.5.weight f4 [1, 64]
000000 3f b2 1f 3e aa 07 e0 bd 20 33 92 3d e3 3b 68 bd
       0.15595339 -0.10938962 0.071386576 -0.056697737
000010 5d 09 85 bd 07 ca a4 bc a9 66 c6 bd e3 8a 1a 3e
       -0.064959265 -0.020115865 -0.096875496 0.15092044
000020 9e 59 83 bb 8a 0f 5c bd df 54 01 3e 4d 89 e1 bd
       -0.004008486 -0.053725757 0.12630032 -0.11012516
000030 b6 cb 1c 3e 75 6c dc bb 43 76 92 bc 09 32 19 bc
       0.15312085 -0.0067267963 -0.017878657 -0.009350308
000040 bd 7d c4 3d cb ec 93 3d a3 c8 ca bd 16 41 fb 3d
       0.09594295 0.07222899 -0.0990155 0.122682735
000050 49 d2 81 3d c0 02 41 3e e9 0f 11 3e e5 79 8f bc
       0.06338937 0.18848705 0.14166225 -0.017514179
000060 8e 39 e2 bd a3 c1 be 3d e4 47 dd bc f1 88 c3 3b
       -0.11046134 0.09314277 -0.02701182 0.0059672524
000070 e1 92 9e 3d 1b ba af bd 04 d4 1c 3e fa 75 d7 bd
       0.07742859 -0.08580419 0.15315253 -0.10520549
000080 49 e9 14 bd 24 e3 0f 3e 9b 3d 43 3e 39 e4 14 3e
       -0.03635529 0.14051491 0.1906647 0.14540185
000090 c9 26 e3 bd d9 af 58 3e 10 d2 09 3d aa 4c a1 3d
       -0.11091382 0.2116083 0.033647597 0.07875951
0000a0 d2 4a 83 bd 5d 14 b6 bc f5 db 26 bd 57 5f 09 3e
       -0.06410755 -0.022226507 -0.04073711 0.13415276
0000b0 77 6a 9e bd 86 07 dd 3d 9a 29 f4 3d 65 ae 2a 3e
       -0.0773515 0.107924506 0.11921997 0.16668089
0000c0 96 cb 35 3e bd cb bc 3d b1 58 7d bd ef c7 3a bd
       0.17753443 0.092185475 -0.06185216 -0.045600828
0000d0 48 3d 80 bd b2 76 56 bd 86 40 82 bd ba 37 b7 bd
       -0.062616885 -0.05235929 -0.06359963 -0.08946176
0000e0 65 a7 cc 3d a3 2f e6 3d a4 e0 76 bd 66 c3 28 3e
       0.099928655 0.11239555 -0.060272828 0.16480789
0000f0 01 e4 9b bd b1 c9 80 bb c2 cb ca bc c0 32 8f bc
       -0.07611848 -0.0039302935 -0.024755362 -0.017480254
