model_microservice/models/urban_brain_pytorch.pth (torch, 72717 bytes, 6 tensors)

lstm.weight_ih_l0 f4 [256, 2]
0	0xbe10f964	-0.14157635
1	0xbd162be1	-0.03666294
2	0xbd9c84d6	-0.07642524
3	0x3d985277	0.07437604
4	0xbc28a1a0	-0.010292441
5	0xbd8b6ff9	-0.068084665
6	0xbbec8e4c	-0.0072191115
7	0xbc2ab880	-0.010419965
8	0x3ca1cc96	0.019750874
9	0x3d9c9706	0.07645993
10	0xbd5f633f	-0.054538008
11	0x3d9dad90	0.0769912
12	0xbe066c30	-0.13127208
13	0x3d961b58	0.07329434
14	0x3d6f9521	0.05849183
15	0xbdd6766e	-0.104718074
16	0xbd930f05	-0.07180599
17	0xbdef9aca	-0.116994455
18	0x3d9bae98	0.076016605
19	0xbdfb45c2	-0.122691646
20	0xbe12e2dc	-0.14344352
21	0xbdac8ee7	-0.08425694
22	0x3d47ca80	0.048777103
23	0x3dab01e0	0.08349967
24	0xbdc1f67d	-0.09470842
25	0x3d8c8c98	0.06862754
26	0xbc549ee1	-0.012977333
27	0x3d9bcec9	0.076078005
28	0xbd499819	-0.049217317
29	0x3da82590	0.082102895
30	0xbdc5dbe5	-0.09661082
31	0x3c080f47	0.008304424
32	0x3d32c120	0.04364121
33	0xbe343708	-0.17599118
34	0x3cca475e	0.024692234
35	0xbdd8828b	-0.10571774
36	0x3d6994cb	0.057026666
37	0x3d82c77a	0.063857034
38	0x3d5d26bf	0.05399203
39	0xbc850243	-0.01623643
40	0xbde142c6	-0.10999064
41	0xbd512644	-0.051061884
42	0xbd7998f5	-0.060936887
43	0x3c0cae6b	0.008586506
44	0xbdd86935	-0.10566942
45	0x3da83626	0.08213453
46	0xbdb86cd0	-0.09005129
47	0xbdf5c4f9	-0.1200046
48	0xbd860c35	-0.06545297
49	0xbda068f5	-0.07832519
50	0x3d403a7f	0.046930786
51	0x3d3fe9ca	0.046853818
52	0xbc3db6ad	-0.011579198
53	0xbddb03d9	-0.10694093
54	0x3d584368	0.05279866
55	0x3d7a4d6d	0.061108995
56	0x3db8735f	0.0900638
57	0x3c064205	0.008194451
58	0x3c6d01d4	0.014465768
59	0x3d3c0beb	0.045909803
60	0x3a1cad9b	0.0005976797
61	0xbe152322	-0.14564183
62	0xbd633d2c	-0.05547826
63	0x3d54b54a	0.051930703
64	0xbbc83000	-0.0061092377
65	0x3d550120	0.052003026
66	0x3d71aae2	0.059000857
67	0x3c9a1294	0.018807687
68	0x3d5e73c8	0.054309636
69	0xbbfe284f	-0.00775627
70	0xbdd2702c	-0.10275301
71	0x3dc853d1	0.09781612
72	0xbe024eab	-0.12725322
73	0xbd1e9154	-0.038712814
74	0x3da87e2b	0.0822719
75	0xbd8bf4ea	-0.06833823
76	0xbdba03d9	-0.09082765
77	0x3cf99cee	0.030470338
78	0xbdf25f06	-0.118345305
79	0x3d6c546a	0.05769769
80	0x3cf86596	0.030321877
81	0xbdeddc27	-0.11614256
82	0x3cb78438	0.022401914
83	0x3c94a334	0.018144228
84	0xbca42128	-0.020035341
85	0xbe2e1881	-0.17001535
86	0x3db3685d	0.0876014
87	0x3b9c911f	0.004778042
88	0x3d38a370	0.04507774
89	0x3d5aefe7	0.053451445
90	0xbdd89c41	-0.10576678
91	0xbda53bc6	-0.080680415
92	0x3d65cb7f	0.056102272
93	0xbdbaf2c8	-0.09128338
94	0xbae28515	-0.0017282093
95	0xbcb2b3f2	-0.02181432
96	0x3da7e411	0.08197797
97	0x3ca65572	0.020304415
98	0xbd891757	-0.06693905
99	0xbddb2c98	-0.10701865
100	0xbd078bfc	-0.033092484
101	0xbda576ec	-0.08079323
102	0x3d430278	0.047609776
103	0xbdd03437	-0.10166209
104	0xbe139777	-0.14413248
105	0x3d4fe6fb	0.05075739
106	0xba80a09c	-0.000981349
107	0xbd6e1080	-0.058121204
108	0xbdbcafe0	-0.09213233
109	0xbd0248b3	-0.031807613
110	0x3cc927fb	0.024555197
111	0x3d2774f7	0.04088303
112	0xbd4b3af7	-0.04961678
113	0x3c09a1a6	0.008400356
114	0xbdf83874	-0.121201426
115	0x3bab597f	0.0052291746
116	0xbd535f5f	-0.051604625
117	0x3cbb9d30	0.022902101
118	0xbd9e3323	-0.07724597
119	0x3d2bf847	0.041984823
120	0xba9b6ca6	-0.0011857941
121	0x3d2df15e	0.042466514
122	0x3d847901	0.06468392
123	0xbaee61d6	-0.0018187116
124	0x3d4a44cc	0.049382016
125	0xbe058ade	-0.13041255
126	0xbdd7359f	-0.10508274
127	0x3dcd4ff1	0.10025013
128	0x3d08764b	0.033315938
129	0xbca45a8f	-0.020062713
130	0x3dd81f65	0.10552863
131	0xbe1595c0	-0.14607906
132	0xbda4fa82	-0.08055593
133	0xbcb48004	-0.022033699
134	0xbdd0ba9b	-0.10191842
135	0xbdd26468	-0.10273057
136	0xbd89c662	-0.06727292
137	0x3dc767bd	0.097365834
138	0x3daa982b	0.08329805
139	0xbd8ea0a1	-0.06964231
140	0x3da68baa	0.081321076
141	0xbd07946d	-0.033100534
142	0x3dd0061b	0.101574145
143	0xbd11b3b4	-0.03557177
144	0xbde7e2f2	-0.11322583
145	0xbdb3ddb2	-0.087825194
146	0x3d5c3e08	0.053770095
147	0xbe1d21c9	-0.1534492
148	0x3db39e21	0.08770395
149	0x3d70d2ed	0.058794905
150	0x3cddb56d	0.02706405
151	0xbe0ad4d0	-0.13557744
152	0xbd800c19	-0.062523074
153	0xbdbd69ce	-0.09248696
154	0xbd1fb323	-0.038989197
155	0xbd6f8aaf	-0.05848187
156	0x3d245514	0.0401202
157	0x3d3af5d3	0.045644592
158	0xbde7e645	-0.11323217
159	0xbccbdf9a	-0.024886895
160	0xbcdddd7b	-0.02708315
161	0xbe0a5e6d	-0.13512583
162	0xbdd4b809	-0.103866644
163	0xbd86f992	-0.065905705
164	0xbd8a5899	-0.0675518
165	0xbdd38924	-0.10328892
166	0xbc181df0	-0.009284481
167	0x3ca3e7e9	0.020008044
168	0x3d412cab	0.04716174
169	0xbd15d73d	-0.03658222
170	0xbd8fffbe	-0.07031201
171	0x3daeb607	0.08530813
172	0xbd80a172	-0.06280793
173	0xbda92a69	-0.08260042
174	0xbcfc63df	-0.030809341
175	0x3d2099f1	0.03920931
176	0x3c03b449	0.008038589
177	0x3dae0db9	0.08498711
178	0x3c402dfa	0.011729712
179	0xbcb570e4	-0.022148557
180	0xbdf711c1	-0.12063933
181	0x3d910c4e	0.07082425
182	0x3db0c9a9	0.086322136
183	0xbe23074c	-0.15920752
184	0x3d7c8792	0.061652727
185	0xbc1449cb	-0.009050797
186	0xbdc408cb	-0.095719896
187	0xbd4bfe54	-0.049803093
188	0xbe2ca517	-0.16859852
189	0x3d389287	0.045061614
190	0xbdfa8414	-0.12232223
191	0x3cc2a38f	0.023759631
192	0x3c10709f	0.008815913
193	0x3c89865c	0.0167877
194	0xbd3d77bd	-0.04625677
195	0x3d7e9c6c	0.062160894
196	0xbe0f51b7	-0.13996015
197	0x3d52d7c3	0.051475298
198	0x3d994d50	0.07485449
199	0xbdf4057e	-0.1191511
200	0x3d4be137	0.04977533
201	0xbdd1d605	-0.10245899
202	0x3d91e5e4	0.07123926
203	0xbe0eb676	-0.13936791
204	0x3d3cc48c	0.04608588
205	0xbdf9f982	-0.12205793
206	0x3dd57c20	0.104240656
207	0xbe059d40	-0.13048267
208	0xbdb03665	-0.08604125
209	0x3be428d1	0.0069628735
210	0xbcd6eb53	-0.026235258
211	0xbe127bb2	-0.14304999
212	0xbdeb94c3	-0.115029834
213	0xbd94d5a6	-0.07267313
214	0xbdbc052b	-0.09180673
215	0x3d10c83d	0.035347212
216	0x3d930e5a	0.07180472
217	0xbe1ef1bd	-0.15521903
218	0x3d03bab7	0.032160487
219	0x3d31bc58	0.04339251
220	0xbe02ff32	-0.12792662
221	0x3db35a0c	0.087574095
222	0xbb90211f	-0.0043984796
223	0x3c379c47	0.011206693
224	0xbda6a4bd	-0.0813689
225	0xbd3ccc28	-0.046093136
226	0xbdd7a2ab	-0.10529073
227	0xbda27789	-0.07932956
228	0xbca97e45	-0.020690093
229	0x3da46d94	0.08028713
230	0xbd946ad4	-0.07246938
231	0xbc8b665f	-0.017016588
232	0xbe0090de	-0.12555262
233	0x3d2fdade	0.042933337
234	0x3ca43cab	0.02004846
235	0x3d96d80e	0.07365428
236	0xbca074b7	-0.019586904
237	0xbd50874e	-0.050910287
238	0x3d59d02f	0.053177055
239	0x3a8ac121	0.0010586121
240	0x3da3b3c4	0.07993272
241	0x3d921883	0.071335815
242	0x3d95e1c1	0.0731845
243	0xbd892efc	-0.06698415
244	0xbb6edd2e	-0.0036447751
245	0x3d65af0b	0.056075137
246	0xbe0fed26	-0.14055309
247	0x3cd13a80	0.02554059
248	0xbdbff8db	-0.09373637
249	0x3d8ce9db	0.06880542
250	0xbb120efa	-0.0022286759
251	0xbdc21177	-0.094759874
252	0xbcaf3683	-0.021388298
253	0x3d1db618	0.038503736
254	0xbc85aa37	-0.016316516
255	0xbd46f891	-0.048576895

lstm.weight_hh_l0 f4 [256, 64]
0	0x3e07f769	0.13277973
1	0x3c1652f6	0.009175053
2	0xbc278b74	-0.010226119
3	0x3c976a6d	0.018483365
4	0x3dba4adb	0.09096309
5	0x3dd96ee5	0.106168546
6	0xbc8f5e25	-0.017500946
7	0x3c0e27c7	0.008676476
8	0xbd8b3838	-0.06797832
9	0x3bdf667a	0.006817636
10	0x3d53c587	0.05170205
11	0x3c80d4ec	0.015726529
12	0x3df4eb22	0.119589105
13	0x3cf1308b	0.029442092
14	0x3d86a304	0.065740615
15	0x3c8e19bc	0.017346255
16	0xbdc5390b	-0.09630021
17	0xbc5c4cab	-0.013446013
18	0x3d81f271	0.0634507
19	0xbc8f89cc	-0.017521761
20	0xbd8b405d	-0.06799386
21	0xbdbc8103	-0.092042945
22	0x3d8ca324	0.06867054
23	0xbc7ff21e	-0.01562169
24	0x3d99378d	0.074812986
25	0xbd2f4e8f	-0.04279953
26	0xbe2156c1	-0.1575575
27	0xbd39fe8f	-0.04540878
28	0xbe00477b	-0.12527268
29	0x3d362b4b	0.04447488
30	0xbe15e41d	-0.146378
31	0xbd6df2a5	-0.058092732
32	0x3e12ddbb	0.14342396
33	0x3d1aabbb	0.03776143
34	0xbca532fc	-0.020165913
35	0xbdab5a86	-0.08366875
36	0x3d8a3349	0.06748063
37	0xbd44ecb8	-0.048077315
38	0x3d23e8e1	0.040017013
39	0x3e0da651	0.13832976
40	0x3ba31fff	0.0049781795
41	0xbd97b52b	-0.07407602
42	0xbe00dfa3	-0.1258531
43	0xbe23c42a	-0.159928
44	0x3d50ab02	0.050944336
45	0xbc86fa21	-0.016476693
46	0xbc949b5e	-0.018140491
47	0x3d9ef214	0.077610165
48	0x3e10d9f5	0.14145644
49	0xbc33c4e1	-0.010972233
50	0xbd38f680	-0.045156956
51	0xbd30d75d	-0.043174136
52	0xbc3c7862	-0.011503311
53	0xbe0ccdfb	-0.1375045
54	0x3dc79378	0.09744924
55	0xbd42d03b	-0.047561865
56	0x3dbf8da9	0.093531914
57	0x3c97bb4e	0.018521931
58	0x3c8ef829	0.017452316
59	0x3dd2f613	0.10300841
60	0xbd63aba6	-0.05558362
61	0xbd9f2029	-0.07769806
62	0xbdab2d2a	-0.08358224
63	0xbdbe63dd	-0.09296391
64	0xbdce4d69	-0.100733586
65	0x3dc5dc94	0.096612126
66	0xbd9da03f	-0.0769658
67	0x3d90318e	0.07040702
68	0x3ddf7cf7	0.10912507
69	0x3db99f1b	0.0906355
70	0xbd6c30dd	-0.057663787
71	0x3d889f47	0.06671005
72	0xbc33fdd4	-0.01098581
73	0xbe155f9c	-0.14587253
74	0xbc288782	-0.010286214
75	0xbd8476d8	-0.0646798
76	0xbbf8721d	-0.0075819627
77	0x3d7adf26	0.061247967
78	0xbe223b51	-0.1584294
79	0x3d13fc0c	0.036129043
80	0xbbb63de1	-0.0055615758
81	0x3d672f1b	0.056441408
82	0xbde7c5c0	-0.11317015
83	0x3cdd8923	0.027042931
84	0xbc8f4e6e	-0.017493453
85	0xbd266d80	-0.04063177
86	0xbd964418	-0.073372066
87	0xbd87cf59	-0.06631345
88	0x3d63ff87	0.05566361
89	0x3db0bd1a	0.08629818
90	0x3df24cf6	0.118310854
91	0x3dfd9200	0.12381363
92	0x3d02071c	0.03174506
93	0x3c9f4b7a	0.01944517
94	0xbda98ee7	-0.082792096
95	0x3d642ac0	0.055704832
96	0x3d4765b0	0.04868096
97	0x3da7ffe8	0.08203107
98	0xbdcad710	-0.09904301
99	0x3d2d8e63	0.04237212
100	0x3d04b19b	0.03239594
101	0x3d5a4940	0.053292513
102	0xbd53ebd1	-0.051738564
103	0xbd506222	-0.050874837
104	0x3d06f469	0.03294793
105	0x3d15e9ac	0.0365998
106	0x3ced5cd7	0.028974934
107	0xbdc18c5b	-0.09450599
108	0x3d060c09	0.03272632
109	0x3c192e1c	0.009349372
110	0xbbabc1b1	-0.0052415957
111	0xbd946c49	-0.07247216
112	0xbcc231da	-0.023705412
113	0xbde5c3e2	-0.11219002
114	0x3d9fb310	0.07797825
115	0xbd8ef090	-0.069794774
116	0x3dd8a475	0.10578243
117	0x3dc55b84	0.09636596
118	0xbdda610b	-0.10663041
119	0xbdc0fc25	-0.09423093
120	0x3b4c1f2c	0.003114651
121	0x3e0f4bca	0.13993755
122	0x3da901ec	0.0825232
123	0x3d4c7ed5	0.049925644
124	0xbd062526	-0.03275027
125	0x3c94599b	0.018109133
126	0xbd85cfbc	-0.06533763
127	0x3dca11d0	0.09866679
128	0xbd6832d6	-0.056689106
129	0xbd07fc22	-0.033199437
130	0xbd838759	-0.064223
131	0xbd29b834	-0.041435435
132	0xbda8df66	-0.08245735
133	0xbc3c0173	-0.011474955
134	0xbca05d05	-0.019575605
135	0x3bd81324	0.0065940786
136	0x3ca7fe7e	0.020507094
137	0x3dee7ef1	0.11645306
138	0xbcf9b475	-0.030481556
139	0xbd0db8ce	-0.03460007
140	0xbd47e854	-0.04880555
141	0x3dcddcf3	0.10051908
142	0x3da896d0	0.0823189
143	0x3dd9cb4f	0.10634481
144	0x3da27564	0.07932547
145	0x3d769b52	0.06020672
146	0x3d66f5e4	0.056386843
147	0x3dc8ac82	0.09798528
148	0x3d2671a1	0.04063571
149	0x3cce41c0	0.025177836
150	0x3dd8b9ba	0.105822995
151	0x3d2e9a0e	0.042627387
152	0xbdb9a281	-0.09064198
153	0x3dce60bf	0.100770466
154	0xbd3f6d57	-0.046735134
155	0x3d95191e	0.07280181
156	0x3b867d33	0.0041042804
157	0x3cb02a95	0.02150468
158	0xbde59b4d	-0.11211262
159	0x3dfba1e9	0.12286741
160	0x3e03950d	0.12849827
161	0xbd8897e8	-0.06669599
162	0x3d078c15	0.033092577
163	0x3d073b19	0.033015344
164	0xbc5cd812	-0.01347925
165	0xbcf3be7f	-0.029753922
166	0xbc0969c4	-0.008387033
167	0x3d0dfca7	0.034664776
168	0x3d466d0b	0.048443835
169	0xbded08e5	-0.11573962
170	0xbd770a81	-0.06031275
171	0x3d293a7a	0.041315533
172	0xbd804b2e	-0.062643394
173	0xbd62c93f	-0.055367704
174	0xbce8be21	-0.028410973
175	0x3d312a37	0.04325315
176	0x3dab70c0	0.08371115
177	0xba830fa2	-0.0009999166
178	0x3d105f00	0.03524685
179	0x3d99e478	0.0751428
180	0xbdcd7c1d	-0.10033438
181	0xbd109c94	-0.035305575
182	0xbbd92032	-0.0066261524
183	0xbe043da9	-0.12914146
184	0x3d3d05ec	0.046148226
185	0xbde047f8	-0.10951227
186	0x3d8619a8	0.06547862
187	0xbdafc464	-0.085823804
188	0xbd9919b6	-0.07475607
189	0xbd777779	-0.060416672
190	0xbd35b941	-0.044366125
191	0xbde0bb42	-0.109732166
192	0x3d95d005	0.07315067
193	0x3d96ce05	0.07363514
194	0x3d3bebc6	0.045879148
195	0x3daa05b8	0.08301872
196	0xbd065b8b	-0.032802146
197	0xbbcd19bd	-0.0062591718
198	0x3d81377e	0.063094124
199	0xbc96b6b7	-0.018397672
200	0x3cfd6e73	0.030936455
201	0x3d5fb30c	0.05461411
202	0xbd4cc385	-0.04999115
203	0x3cfb9ff5	0.030715922
204	0xbe0870cf	-0.13324283
205	0x3d814c52	0.06313385
206	0xbd0f5844	-0.034996286
207	0xbd61a23c	-0.05508636
208	0x3de38537	0.11109393
209	0x3e01cab9	0.12674989
210	0xbe05d660	-0.13070059
211	0x3d77ad02	0.060467727
212	0xbbfd7af7	-0.007735606
213	0xbda1ada1	-0.07894445
214	0x3d060a7a	0.032724835
215	0xbdbc332c	-0.09189448
216	0xbd1163d6	-0.0354956
217	0x3d913754	0.07090631
218	0x3d88ceb8	0.066800535
219	0xbdcebc46	-0.10094504
220	0xbc385631	-0.011251018
221	0xbe18d697	-0.1492561
222	0x3d2f0b5e	0.04273545
223	0xbd777c2b	-0.06042115
224	0x3e037d8d	0.12840863
225	0x3d42805f	0.047485705
226	0xbd93c3b2	-0.0721506
227	0x3dc1e13b	0.094667874
228	0x3de5afee	0.112151965
229	0xbe18b9bf	-0.14914607
230	0x3e18ab1a	0.1490902
231	0x3d2eafa4	0.042647973
232	0x3d173fff	0.036926266
233	0x3d19d7f3	0.03755946
234	0x3d9101ec	0.07080445
235	0xbd17f79f	-0.037101384
236	0x3d52c0c5	0.05145337
237	0x3db3ffe5	0.087890424
238	0xbd70fa2e	-0.05883234
239	0x3e18b16f	0.14911436
240	0x3de69b93	0.11260142
241	0xbc88b310	-0.016686946
242	0xbdd354f5	-0.10318939
243	0xbda96812	-0.08271803
244	0x3d89a05c	0.06720039
245	0xbdefacb0	-0.117028594
246	0x3c76052d	0.015015882
247	0x3d7c05f8	0.06152913
248	0xbd848a8b	-0.064717375
249	0x3da4994a	0.0803705
250	0xbe01792d	-0.12643881
251	0xbe04e335	-0.12977298
252	0x3ba6bf0e	0.0050886935
253	0xbbeef8e6	-0.0072928546
254	0xbdba2cb8	-0.09090561
255	0x3dcfa619	0.101391025

lstm.bias_ih_l0 f4 [256]
0	0xbd724fbd	-0.059158076
1	0xbd9baea5	-0.0760167
2	0xbdd85021	-0.105621584
3	0xbde7f69b	-0.11326333
4	0x3ceb64ba	0.028734554
5	0xbd4dd2a2	-0.050249703
6	0x3d490cd4	0.0490845
7	0xbd8899ca	-0.06669958
8	0xbce5521b	-0.027993253
9	0xbdaf1e3e	-0.0855069
10	0xbd5b9038	-0.053604335
11	0xbd9ec857	-0.077530555
12	0xbb3b98cc	-0.002862501
13	0x3d588991	0.05286557
14	0xbda1cbb0	-0.079001784
15	0xbc8cf112	-0.017204795
16	0x3db01cac	0.08599219
17	0x3d6fab7c	0.05851315
18	0xbdef36fc	-0.11680409
19	0xbd3d1455	-0.04616197
20	0x3dc457c2	0.09587051
21	0xbdbc712e	-0.09201275
22	0x3d8a0412	0.067390576
23	0x3dc65df5	0.0968589
24	0xbb945d2d	-0.004527709
25	0xbdb27de4	-0.08715418
26	0xbddfcf03	-0.10928156
27	0xbdd3d58d	-0.10343466
28	0x3d294607	0.04132655
29	0xbd52b606	-0.051443122
30	0xbdf958c3	-0.12175133
31	0x3de91781	0.11381436
32	0xbd8d1ab5	-0.068898596
33	0xbdb8f865	-0.090317525
34	0xbc7394f5	-0.014867057
35	0x3df327bd	0.11872814
36	0x3ddcab2b	0.10774835
37	0x3e027d56	0.12743124
38	0x3e04ecdb	0.12980978
39	0x3d7bc438	0.061466426
40	0xbdb5bd43	-0.088739894
41	0xbe00a823	-0.12564139
42	0x3d8481d5	0.06470076
43	0xbd52e592	-0.051488467
44	0x3d629ac0	0.055323362
45	0x3dd4964e	0.10380231
46	0x3d929953	0.071581505
47	0x3e058a09	0.13040937
48	0xbbc12e31	-0.005895399
49	0x3e1528bf	0.14566325
50	0x3daee1e9	0.08539183
51	0xbcb46b42	-0.0220238
52	0xbe10c20e	-0.14136526
53	0xbdb87570	-0.090067744
54	0xbd9b43c6	-0.07581286
55	0xbd2172a9	-0.03941599
56	0xbbdd9fb7	-0.0067634243
57	0x3cbe6c4d	0.023245001
58	0xbd17c22c	-0.03705041
59	0x3be224a1	0.006901339
60	0x3e13ec88	0.14445698
61	0xbd52c273	-0.051454972
62	0xbdc7e6dc	-0.0976083
63	0x399c3e21	0.00029800928
64	0xbd8e5dd3	-0.06951489
65	0xbc25e5ac	-0.010125559
66	0x3cd91b1c	0.026502185
67	0xbd2d9cb3	-0.04238577
68	0xbd0f368b	-0.034964126
69	0xbd770971	-0.06031174
70	0x3dc96c5c	0.09835121
71	0xbb02f694	-0.0019983398
72	0x3cceb854	0.025234379
73	0x3db87515	0.090067066
74	0xbd8ba3cb	-0.068183504
75	0x3d14d932	0.036339946
76	0xbdd28d73	-0.102808855
77	0x3c04195a	0.008062685
78	0x3c63fad1	0.01391478
79	0xbc1f0ef8	-0.009708159
80	0x3cfda444	0.030962117
81	0x3dd7d266	0.10538177
82	0xbd642b3d	-0.055705298
83	0x3e21609c	0.1575951
84	0x3d4eb499	0.0504652
85	0x3e0bd750	0.13656354
86	0x3c3b47d3	0.011430698
87	0xbde0379c	-0.10948107
88	0xbdd0ad15	-0.10189263
89	0xbd8279ee	-0.063709125
90	0x3d7a257f	0.061070915
91	0x3d4ba6dc	0.049719676
92	0x3b020c49	0.0019843748
93	0x3e23a0d0	0.15979314
94	0x3d855e43	0.065121196
95	0x3d23c727	0.03998485
96	0x3d4bd0c3	0.049759638
97	0x3dc56079	0.09637541
98	0xbcc4c950	-0.024021775
99	0x3d9bb346	0.07602553
100	0xbda3168d	-0.079632856
101	0xbde0d854	-0.10978761
102	0x3e020200	0.12696075
103	0xbd18f02c	-0.03733842
104	0x3e04e1d9	0.12976779
105	0x3d352e6f	0.044233736
106	0x3d7b75a7	0.0613915
107	0xbd1941fd	-0.037416447
108	0x3d99e0e2	0.07513596
109	0x3df518d2	0.11967625
110	0x3c7424df	0.014901369
111	0x3dd68be2	0.10475899
112	0xbd0913c4	-0.033466116
113	0xbd81a238	-0.06329769
114	0x3d3423bd	0.043979395
115	0x3d5930ca	0.053025045
116	0x3d8a4c77	0.06752866
117	0xbc111a92	-0.0088564325
118	0x3db67c68	0.08910447
119	0xbe058e61	-0.13042594
120	0xbdbdeb3f	-0.09273385
121	0xbe17180d	-0.14755268
122	0xbdef22ad	-0.11676536
123	0x3d1104b1	0.035404865
124	0x3ddeb299	0.108739085
125	0xbd8066b8	-0.06269592
126	0xbdb2451d	-0.087045886
127	0xbda13cc4	-0.07872918
128	0xbc1fcbde	-0.009753196
129	0x3cf9ba6c	0.0304844
130	0xbd53a457	-0.0516704
131	0x3d6f166a	0.058370985
132	0xbd444def	-0.047925886
133	0xbdb1c409	-0.08679969
134	0x3dc73357	0.09726589
135	0xbc9cf24b	-0.019158503
136	0x3b00097f	0.001953691
137	0xbcda9223	-0.026681012
138	0xbd51b10d	-0.05119424
139	0x3e0e1fc0	0.13879299
140	0xbdcd27c4	-0.1001735
141	0x3de2b0f4	0.110689074
142	0xbd4b4bc7	-0.049632814
143	0x3e06fa3d	0.13181396
144	0xbd962513	-0.0733129
145	0xbe11cd03	-0.14238362
146	0xbda05a4a	-0.07829721
147	0x3d574dc4	0.052564397
148	0x3db4e8b4	0.08833447
149	0xbe0c5f0f	-0.13708137
150	0xbd430740	-0.047614336
151	0x3ce6e742	0.028186444
152	0xbd2bd223	-0.04194845
153	0x3dd405ee	0.103526935
154	0x3d8fc7a2	0.07020499
155	0xbd63ded8	-0.055632442
156	0x3d5d0df7	0.053968396
157	0x3e09b518	0.13447988
158	0x3db25a28	0.08708602
159	0x3dc7016d	0.09717069
160	0xbd72f654	-0.059316948
161	0x3d2d4822	0.04230512
162	0xbe1b87ae	-0.15188476
163	0x3e08fb14	0.13377029
164	0xbe07a8b6	-0.13247952
165	0xbcb2927a	-0.021798361
166	0xbe08c6fa	-0.13357154
167	0xbd6de09c	-0.058075532
168	0xbc8f61c9	-0.017502682
169	0x3c8d29ae	0.017231788
170	0x3e14a2b4	0.14515191
171	0xbcee003d	-0.029052848
172	0x3c8c7771	0.017146798
173	0xbe15a407	-0.14613353
174	0x3db1c838	0.08680767
175	0x3d435403	0.04768754
176	0xbd536c6a	-0.051617064
177	0xbe091a09	-0.13388838
178	0xbcb7004b	-0.022339007
179	0xbe1d03c4	-0.15333468
180	0x3d9b39df	0.075793974
181	0x3e1384dd	0.14406152
182	0xbdf057c3	-0.11735489
183	0x3d94e656	0.072704956
184	0xbdb7e0d0	-0.089784265
185	0x3d4d3233	0.0500967
186	0x3d441fa2	0.04788173
187	0x3dc1bec6	0.09460215
188	0xbe101a24	-0.14072472
189	0x3d94501d	0.07241843
190	0x3d99c654	0.07508531
191	0x3d4be6c8	0.049780637
192	0x3dbcd0f2	0.09219541
193	0xbcfb94a3	-0.030710524
194	0x3d396b0b	0.0452681
195	0xbe09f18a	-0.13471046
196	0x3e0effe9	0.1396481
197	0xbd104b4f	-0.03522807
198	0x3de0ae98	0.10970801
199	0x3cfb64d7	0.030687733
200	0x3daaf940	0.08348322
201	0x3d5b6f08	0.053572685
202	0x3990c0fa	0.000276096
203	0x3dc31357	0.09525173
204	0x3d9e8fae	0.077422485
205	0xbd5bf836	-0.05370351
206	0xbc175bec	-0.0092382245
207	0xbdb282b5	-0.08716337
208	0x3cbcecff	0.023062227
209	0x3cbdea57	0.023183031
210	0x3d810000	0.06298828
211	0xbdb43534	-0.0879921
212	0x3dbd4502	0.09241678
213	0x3e06242b	0.13099734
214	0x3d22ef13	0.03977878
215	0x3dfc6e24	0.12325695
216	0xbd948204	-0.07251361
217	0x3d5297b0	0.05141419
218	0x3d57069e	0.052496545
219	0x3dc03e73	0.09386911
220	0xbda81ab0	-0.08208215
221	0x3dcce8a1	0.10005308
222	0xbd817444	-0.06321004
223	0xbde98202	-0.1140175
224	0x3ac4b19d	0.0015006546
225	0xbd29a78a	-0.041419543
226	0x3dadde8f	0.08489715
227	0xbd54bdaa	-0.05193869
228	0xbc4cea4a	-0.012507031
229	0x3e007cf7	0.1254767
230	0xbda1f0ee	-0.07907282
231	0x3dbc1bcc	0.09184989
232	0xbd018578	-0.031621426
233	0xbdf58a93	-0.119893216
234	0xbcd3624d	-0.02580371
235	0xbc23905c	-0.009983148
236	0x3d654a53	0.055979084
237	0x3da8e89c	0.08247492
238	0x3d2f32cb	0.04277305
239	0x3e06b360	0.13154364
240	0x3d8d2f58	0.06893796
241	0x3b8bc056	0.0042648716
242	0x3c7f4ae2	0.015581818
243	0xbda8de71	-0.08245552
244	0xbc46b919	-0.012129092
245	0xbcce2596	-0.025164407
246	0x3d5a93b2	0.05336351
247	0xbe0eb008	-0.13934338
248	0x3d3d734c	0.046252534
249	0xbe15f0dc	-0.14642662
250	0xbd99d30a	-0.07510956
251	0x3d85567c	0.06510636
252	0xb867be58	-5.5251963e-05
253	0xbdf11064	-0.117707044
254	0xbda700c5	-0.08154444
255	0x3deb6e81	0.11495686

lstm.bias_hh_l0 f4 [256]
0	0x3cbe374d	0.023219729
1	0xbd7e2bd4	-0.062053517
2	0xbdec7f81	-0.11547757
3	0x3d9ed01d	0.07754538
4	0x3bd69e72	0.00654965
5	0xbdc7d29f	-0.0975697
6	0xbd455f55	-0.04818662
7	0x3c9d5f55	0.019210497
8	0xbe190e41	-0.14946844
9	0x3dbb842e	0.09156071
10	0xbd205a05	-0.03914835
11	0x3ced7090	0.028984338
12	0x3c4dd7c8	0.012563653
13	0xbd910fbc	-0.07083079
14	0xbe18fecd	-0.14940949
15	0x3d9186e4	0.071058065
16	0xbbe27271	-0.006910615
17	0x3ccf38c4	0.025295623
18	0xbdee48d4	-0.116349846
19	0x3d0f2aa9	0.034952793
20	0x3d84fd4e	0.064936265
21	0x3d0f4b67	0.03498402
22	0x3ddf3e5f	0.10900568
23	0xbc895dff	-0.016768454
24	0x3dae5326	0.08511953
25	0x3d0e4832	0.03473682
26	0x3d85b0be	0.065278515
27	0xbdd40c67	-0.10353928
28	0x3bbd789f	0.0057822014
29	0x3e2154e4	0.1575504
30	0xbd041960	-0.032250762
31	0x3d2021c9	0.03909472
32	0x3bd5ea1e	0.006528153
33	0xbcae95cd	-0.021311665
34	0xbdb57c3c	-0.088615865
35	0x3d2758d4	0.040856197
36	0xbd85ee28	-0.06539565
37	0xbc90a887	-0.017658485
38	0x3ae79690	0.0017668772
39	0xbcd6a2d0	-0.026200682
40	0x3e0af330	0.13569331
41	0xbdf4a16e	-0.11944853
42	0x3d53ad5e	0.051679008
43	0xbd813c56	-0.06310336
44	0x3d55a82a	0.052162327
45	0x3d58680b	0.052833598
46	0x3dace039	0.084412046
47	0x3e0bbb46	0.13645658
48	0xbdb218a2	-0.086961046
49	0xbb448db6	-0.0029991693
50	0x3d657941	0.05602384
51	0x3ce615e3	0.028086608
52	0xbdcf428e	-0.10120116
53	0x3dbe1eb0	0.09283197
54	0x3dced1b6	0.10098593
55	0xbdf52558	-0.119700134
56	0xbdb40533	-0.08790054
57	0xbde80b80	-0.113303185
58	0xbc688fec	-0.01419447
59	0xbdfac064	-0.12243727
60	0x3d19b9a0	0.03753054
61	0xbdafcb51	-0.085837014
62	0xbc95b6d9	-0.018275665
63	0x3d8dbd9c	0.06920931
64	0xbd7004a5	-0.05859818
65	0xbdb27179	-0.087130494
66	0x3c9bbf7d	0.019012207
67	0x3cfadfd3	0.030624306
68	0xbd9a084e	-0.07521115
69	0xbd3d646b	-0.046238344
70	0xbe098e7a	-0.13433257
71	0xbd83c558	-0.06434125
72	0x3dabc5d9	0.08387346
73	0x3d7fdb93	0.06246526
74	0xbcebc128	-0.028778628
75	0xbc7d1264	-0.015446279
76	0x3d0208f5	0.031746823
77	0xbd14ea58	-0.0363563
78	0x3d9141be	0.070926175
79	0xbd628473	-0.055302095
80	0xbddaa38d	-0.10675726
81	0x3e1b3348	0.15156281
82	0xbb8472f3	-0.0040420233
83	0x3dc967d5	0.098342575
84	0xbd80484a	-0.06263788
85	0xbdcce044	-0.10003713
86	0xbdae718b	-0.0851775
87	0xba8dfc1e	-0.0010832583
88	0xbd977ca2	-0.07396819
89	0x3e030fbc	0.12798971
90	0x3dde020e	0.10840236
91	0xbc62f334	-0.013851929
92	0x3b83c995	0.004021833
93	0x3d8971f7	0.0671119
94	0xbe042732	-0.12905577
95	0x3dafdf38	0.085874975
96	0xbdcb41ca	-0.09924658
97	0x3b3e22c1	0.0029012414
98	0x3d9d370c	0.07676515
99	0x3c874baa	0.016515572
100	0xbdb4b0e7	-0.08822804
101	0xbdd2a380	-0.102850914
102	0x3d833599	0.06406707
103	0xbd3ccbdc	-0.046092853
104	0x3d43c1fb	0.047792416
105	0xbcfd4c93	-0.030920302
106	0xbcc4541c	-0.023965888
107	0x3de624a4	0.112374574
108	0x3db85ed0	0.09002459
109	0x3de2282e	0.1104282
110	0xbd08b0e9	-0.03337184
111	0x3d9ebf94	0.077513844
112	0xbca0200c	-0.019546531
113	0xbdb733ba	-0.08945413
114	0xbde40cce	-0.11135255
115	0xbd2e528e	-0.0425592
116	0xbc64418c	-0.013931643
117	0xbb9a3904	-0.004706504
118	0xbd86069a	-0.06544228
119	0x3caff2a7	0.02147801
120	0xbcfb913f	-0.030708907
121	0xbd9c3d60	-0.07628894
122	0x3dc57285	0.096409835
123	0x3d66b7a4	0.056327477
124	0x3dba8189	0.09106738
125	0xbd7e337d	-0.06206082
126	0x3d95da11	0.073169835
127	0x3dacecb4	0.08443585
128	0xbe0541ad	-0.13013335
129	0x3e0be795	0.1366256
130	0xbc940691	-0.018069537
131	0xbd753086	-0.05986073
132	0xbe21ffae	-0.1582019
133	0xbcc119b2	-0.023571823
134	0xbb932313	-0.004490265
135	0xbcc1515b	-0.023598364
136	0xbcf047e4	-0.029331155
137	0x3db6787a	0.08909698
138	0xbe1f7e29	-0.1557547
139	0x3de4c533	0.11170425
140	0xbd546510	-0.051854193
141	0xbd85aa6e	-0.065266475
142	0xbd5ec82b	-0.054390114
143	0x3e2358fa	0.1595191
144	0xbd703d40	-0.058652163
145	0xbdeb0d77	-0.114771776
146	0x3df6c75c	0.120497435
147	0x3e2382ca	0.15967861
148	0xbd74010c	-0.05957131
149	0xbdf3a86d	-0.11897359
150	0xbde13508	-0.10996443
151	0xbe0baad1	-0.1363938
152	0x3d399b15	0.045313913
153	0x3c089ba1	0.008337886
154	0xbaeff135	-0.0018306138
155	0x3d9d9830	0.07695043
156	0x3e019f97	0.12658535
157	0x3e397572	0.18111208
158	0x3da97bbe	0.08275555
159	0x3c15aa24	0.009134803
160	0xbdf8ac55	-0.12142245
161	0xbe0b6a55	-0.13614781
162	0xbce2dfdf	-0.02769464
163	0x3e01738d	0.12641735
164	0xbdb85429	-0.09000427
165	0x3d55692a	0.052102245
166	0xbd5b29a7	-0.05350652
167	0x3ad19bd6	0.0015991877
168	0xbe1693ff	-0.14704894
169	0x3bd2130e	0.006410963
170	0xbd4229f5	-0.047403295
171	0x3d67b947	0.05657318
172	0xbc15ddc0	-0.009147108
173	0x3bf47981	0.0074607735
174	0xbdca3e5a	-0.09875174
175	0xbe063e9f	-0.13109826
176	0xbd9838fc	-0.07432744
177	0xbdd68d38	-0.10476154
178	0x3d7fcbd8	0.06245026
179	0x3cc6ae62	0.024253074
180	0x3d104bfd	0.035228718
181	0x3c4cff33	0.012512016
182	0xbce222c6	-0.027604472
183	0xbd76922e	-0.060198
184	0x3d111cb0	0.03542775
185	0x3d56f6aa	0.05248133
186	0x3d47412e	0.048646145
187	0xbdb2af9e	-0.087249026
188	0xbe2b4339	-0.16724862
189	0xbe08129f	-0.13288353
190	0xbc0b9ff8	-0.008522026
191	0x3cf9a3b5	0.03047357
192	0xbd915b93	-0.070975445
193	0xbcdbbc3c	-0.026823156
194	0x3dbb1a41	0.09135867
195	0xbdb970b4	-0.090546995
196	0x3e057c13	0.13035612
197	0x3d592601	0.05301476
198	0x3ded416c	0.11584744
199	0xbdd6dee4	-0.10491732
200	0xbd38e49e	-0.0451399
201	0x3d9ce01c	0.07659933
202	0xbdd7e5da	-0.105418876
203	0x3dfe44b0	0.12415445
204	0xbcb7be42	-0.02242959
205	0x3d5f280d	0.054481555
206	0xbcda0aee	-0.02661654
207	0xbda73cf1	-0.081659205
208	0x3dc71b78	0.09722036
209	0x3d33b3ac	0.04387252
210	0xbdaeed93	-0.085414074
211	0x3cd72de1	0.026266994
212	0x3d261bf5	0.040554006
213	0xbd586fd5	-0.052841026
214	0xbbb9b3ab	-0.00566717
215	0xbcd6fa5a	-0.026242424
216	0xbdcc3037	-0.09970134
217	0x3db2c477	0.08728879
218	0xbde95388	-0.113928854
219	0x3c4dfac0	0.0125719905
220	0x3c91b711	0.017787488
221	0x3dec8a6d	0.1154984
222	0xbdad27c3	-0.084548496
223	0x3dd00270	0.10156715
224	0xba96b799	-0.0011498808
225	0xbd4a5e2b	-0.04940621
226	0xbdaaff51	-0.08349479
227	0xbdc7eed3	-0.09762349
228	0xbc29988e	-0.010351313
229	0x3cba0446	0.022707116
230	0x3d1b491c	0.03791152
231	0x3d336bfc	0.043804154
232	0x3e048278	0.12940395
233	0xbd79446a	-0.06085626
234	0xbda9e1ae	-0.08294998
235	0x3d99142e	0.07474552
236	0xbbb2af5e	-0.0054530343
237	0x3d997dba	0.074946836
238	0xbd4f4e6e	-0.050611906
239	0x3dc42e15	0.09579102
240	0x3daa0a74	0.08302775
241	0x3dbc6e31	0.09200705
242	0xbd80cb79	-0.06288809
243	0xbd656a63	-0.05600966
244	0xbded4238	-0.11584896
245	0x3d10d3ad	0.03535812
246	0x3e0a92c4	0.13532549
247	0xbd3541a2	-0.044252045
248	0x3bc230ce	0.005926228
249	0x3c9c8ffa	0.019111622
250	0xbda56f72	-0.08077897
251	0x3c5ef2a0	0.013607651
252	0xbda1328d	-0.0787097
253	0x3db537d2	0.088485375
254	0x3d527dc1	0.05138946
255	0xbc0117a7	-0.007879174

fc.weight f4 [2, 64]
0	0xbdc06fae	-0.09396301
1	0xbbe87969	-0.0070945513
2	0x3d41f7ae	0.047355346
3	0xbdaec105	-0.08532909
4	0x3c0bae9d	0.008525518
5	0xbdb997ce	-0.090621576
6	0xbd7b70b8	-0.061386794
7	0x3cdac342	0.026704434
8	0x3c7d1353	0.015446502
9	0x3b8da652	0.0043228054
10	0xbddb7b6b	-0.107168995
11	0x3dc7095b	0.09718581
12	0xbd8a10de	-0.067414984
13	0x3d9a8133	0.07544174
14	0x3d5e4a9f	0.054270383
15	0x3e0159af	0.12631868
16	0x3d86f387	0.06589418
17	0xbdf3c45a	-0.119026855
18	0x3db24c60	0.087059736
19	0x3d7c6074	0.061615422
20	0xbd273e04	-0.040830627
21	0x3c811d95	0.015761176
22	0xbe094aab	-0.1340739
23	0xbd726b34	-0.059184268
24	0x3c89e049	0.01683058
25	0xbbe9c904	-0.0071345586
26	0xbcb7a79d	-0.022418791
27	0xbdbbdeaa	-0.09173329
28	0x3dabd86e	0.0839089
29	0x3e178e6a	0.1480042
30	0x3d89b416	0.06723802
31	0x3e0cc3fc	0.13746637
32	0xbdcfbed6	-0.10143821
33	0xbdbe42f6	-0.092901155
34	0xbdf50edc	-0.11965725
35	0x3df84185	0.12121872
36	0xbce3d95e	-0.02781361
37	0x3b0ad175	0.0021181975
38	0xbddfc5b2	-0.10926379
39	0xbdf2eacd	-0.11861191
40	0xbc6d1c68	-0.014472105
41	0xbca83f0b	-0.020537874
42	0x3bec6b06	0.0072149066
43	0x3d020d82	0.031751163
44	0xbc519fa6	-0.012794411
45	0xbe1331fc	-0.14374536
46	0xbc48f1f1	-0.012264715
47	0xbe10a1a5	-0.14124162
48	0xbe0303b1	-0.12794377
49	0xbe19459d	-0.14967962
50	0xbdbc7fbe	-0.092040524
51	0xbc7a3e43	-0.015273633
52	0xbcff06ea	-0.031131227
53	0xbd719281	-0.058977608
54	0xbd72050d	-0.059086848
55	0xbd8b9762	-0.06815983
56	0xbd7621df	-0.060090896
57	0xbc2ace48	-0.010425158
58	0xbd320e7a	-0.043470837
59	0xbd907be0	-0.07054877
60	0xbe1e6043	-0.15466408
61	0x3b3ae9d7	0.0028520727
62	0xbd8579f7	-0.065174036
63	0x3d7986c9	0.060919557
64	0x3cf117e7	0.029430343
65	0x3df6aa77	0.12044232
66	0x3d7b79e8	0.061395556
67	0x3d08c97b	0.03339527
68	0xbe1592c2	-0.14606765
69	0xbe0fcdcd	-0.1404335
70	0x3a723c9c	0.0009240599
71	0x3d344155	0.044007618
72	0xbb8ce6e5	-0.0042999857
73	0x3dbdae5f	0.09261774
74	0xba67ead5	-0.00088469434
75	0x3d830a24	0.063984185
76	0x3d72a07e	0.05923509
77	0x3dbd5c9b	0.09246179
78	0x3d74791b	0.059685808
79	0xbbc108ff	-0.005890965
80	0xbdef421b	-0.116825305
81	0xbdd920f1	-0.10601986
82	0x3c476c81	0.012171865
83	0x3d2fbc59	0.04290423
84	0xbd95043c	-0.07276198
85	0xbdef0fec	-0.11672959
86	0xbd616e4e	-0.055036835
87	0xbc7fb501	-0.01560712
88	0x3de6f1f2	0.11276616
89	0x3e14f947	0.14548217
90	0x3e095843	0.13412575
91	0xbdaa3fbf	-0.0831294
92	0x3d6de6d5	0.058081467
93	0x3d81bdf3	0.06335058
94	0xbba97f2b	-0.0051726303
95	0xbd1289f6	-0.0357761
96	0x3bbb660c	0.005718952
97	0xbdb57c2c	-0.088615745
98	0x3b0a0148	0.0021057893
99	0xbbbaeb41	-0.005704314
100	0xbd49f885	-0.049309272
101	0x3daee614	0.08539978
102	0xbdd8f6f0	-0.105939746
103	0xbe0339f7	-0.1281508
104	0xbdc8b25b	-0.097996436
105	0xbd0cfc72	-0.034420438
106	0x3dee3825	0.116318025
107	0x3dd8a938	0.10579151
108	0xbda1cba0	-0.079001665
109	0x386eadee	5.6905606e-05
110	0xbcfeb626	-0.031092715
111	0xbdd704b1	-0.10498942
112	0x3d4b50e4	0.04963769
113	0xbd9f5fb1	-0.077819236
114	0xbd9d7d27	-0.076898865
115	0xbd9bd9f1	-0.076099284
116	0x3be81ec1	0.0070837443
117	0x3df299e5	0.11845759
118	0xbcfcf4ae	-0.030878391
119	0x3d806334	0.062689215
120	0xbdaae813	-0.08345046
121	0xbd185daa	-0.0371987
122	0xbc9126dc	-0.017718725
123	0x3dc4cdc6	0.09609561
124	0xbdc88cb2	-0.097924605
125	0xbdb58514	-0.08863273
126	0x3dc6628f	0.09686767
127	0x3ca9c864	0.020725437

fc.bias f4 [2]
0	0x3cbec8ef	0.023289172
1	0x3d25890f	0.040413912
